experiments/transformer/models/seq_reverse/models/lightning_logs/version_1/checkpoints/epoch=1-step=780.ckpt (torch, 179235 bytes, 22 tensors)

input_net.1.weight f4 [32, 10]
000000 f8 d4 87 be 97 d6 f0 3d 85 ce 5b be b6 ec 17 be
       -0.2652967 0.1175968 -0.214655 -0.14836392
000010 55 f4 80 3e 7d 0e d6 3d 8e b1 03 bd c6 e6 94 3e
       0.2518641 0.10451982 -0.03215175 0.29082316
000020 28 cb cc 3d 27 41 fe 3d dc 2b 7b 3e 83 0c 85 be
       0.099996865 0.124147706 0.2452845 -0.25986108
000030 55 ad e1 bd 51 56 b6 3d 31 41 1e be fe 30 40 be
       -0.110193886 0.08903182 -0.15454556 -0.18768689
000040 1b 03 0f 3e 56 e1 cf bc c6 85 dc 3d 89 7f 7e 3e
       0.13966028 -0.025376003 0.10767703 0.24853338
000050 6a 01 a2 bd af 7a 3f 3d 56 f4 4a bd e7 08 dc bd
       -0.07910426 0.04674786 -0.049549423 -0.107438855
000060 fc c8 61 3e 14 b8 3e be d5 04 6f bd dc 0a 30 3e
       0.22049326 -0.18624908 -0.058354218 0.17191643
000070 bc e3 1b bd 8b ba 8a be fe 00 a2 3d 93 a3 4b 3d
       -0.03805898 -0.27095446 0.079103455 0.049716543
000080 d7 60 92 bd 20 98 41 bd 20 59 53 3e 16 57 e2 bd
       -0.07147377 -0.04726422 0.20639467 -0.110517666
000090 c9 ef a0 be cc 48 d0 bc 59 db b0 3d 44 d0 f3 bd
       -0.31432942 -0.025425337 0.08635587 -0.11904958
0000a0 8c d2 29 be 8a 1d 2f bd bc 07 08 be 56 69 8a be
       -0.16584224 -0.04275278 -0.132842 -0.2703349
0000b0 3f 76 0b bd d2 d9 ff bc 60 0c 56 be fd 18 65 be
       -0.034048315 -0.031231795 -0.20903158 -0.22372814
0000c0 94 ca 6a 3e 22 a7 4b 3e c3 d4 87 be 2d 19 38 3d
       0.2292884 0.19887975 -0.26529512 0.044945884
0000d0 df 4f 7e be e0 fc 9c 3e 7c 93 17 3d 23 c0 90 bd
       -0.24835156 0.30661678 0.037005886 -0.07067897
0000e0 80 56 43 be 03 66 5d 3e 07 0f 3d 3d 55 c3 72 3e
       -0.19075966 0.21620946 0.04615691 0.23707326
0000f0 b3 26 8b 3e 2f 54 aa 3e a3 02 2c be c8 a9 58 3d
       0.27177963 0.33267352 -0.16797881 0.05289629
000100 76 9a 36 be 59 87 6f bd 4c 75 9b 3e 3f c7 32 3e
       -0.1783236 -0.058478687 0.30362928 0.17458819
000110 0f 90 72 be ad 14 46 3e 8c a8 34 3e e6 80 52 be
       -0.23687766 0.19343825 0.1764242 -0.20556983
000120 a9 45 30 bd 75 d1 7e 3e 8d d0 74 be 6f 58 87 3e
       -0.043035183 0.24884589 -0.23907681 0.26434657
000130 ba b3 cf bd da 52 8a 3e 68 f3 88 3d bf 07 77 be
       -0.10141702 0.27016336 0.06687051 -0.24124049
000140 71 49 08 3e 6a 7d e3 bd 49 f9 28 3e 59 cc 03 be
       0.13309266 -0.11107905 0.16501345 -0.12870921
000150 d6 15 0b bd 4d ca 57 3e 51 8b ce 3d 25 19 8e 3e
       -0.03395637 0.21073265 0.10085166 0.2775356
000160 8e 87 40 be ef f5 18 be d5 b9 4c 3e 78 72 ae be
       -0.1880171 -0.14937566 0.19992764 -0.34071708
000170 93 8e c9 3d 64 37 74 be 83 a3 f8 3d 3a a9 59 be
       0.09841647 -0.23849255 0.121405624 -0.21255961
000180 23 2b 8e 3e ca 31 04 be ee 9f 6c bd bb f1 ba 3d
       0.27767286 -0.12909618 -0.05776971 0.09128138
000190 fa 39 0b be 67 6a 84 3e 38 a6 0f 3e 43 de 49 3e
       -0.13596335 0.2586243 0.14028251 0.19713692
0001a0 b7 68 63 bd 33 42 82 be cd 0e f3 bd 69 43 1d be
       -0.055519786 -0.2544113 -0.118680574 -0.15357746
0001b0 0a eb 8f be 22 ba 01 be 21 27 84 bd 79 c1 ba 3c
       -0.28109008 -0.1266866 -0.06452776 0.022797333
0001c0 58 3f 26 3e 6d 13 da ba fc 43 13 3e 8b aa 03 bd
       0.16235101 -0.0016637869 0.14381403 -0.032145064
0001d0 23 a6 82 be 87 41 85 3e d2 51 4d be 95 02 97 be
       -0.25517377 0.26026556 -0.20050743 -0.29494157
0001e0 11 d1 a5 3e f7 78 ad 3d 9b e4 42 be 23 08 fd 3d
       0.32386068 0.08470338 -0.19032519 0.123550676
0001f0 3f 98 8a 3e f3 e4 6c 3e b4 e3 29 be 2a b0 1e bd
       0.2706928 0.23134212 -0.16590768 -0.038742222
000200 55 c2 aa 3e cc 75 51 3e 80 3c 55 3e b6 44 1c bc
       0.3335139 0.20455092 0.2082386 -0.009537866
000210 ca cf 55 be 1f 9b 92 be 13 9d 61 be fd e3 40 bd
       -0.20880046 -0.28633973 -0.22032575 -0.047092427
000220 5a 86 4b 3e a2 1e 24 be 7f 32 6f 3e d3 b8 4f be
       0.1987547 -0.1602731 0.23359106 -0.20285349
000230 ff 4b 03 3c 5f d0 18 3e e2 31 dd 3d cf 5b 63 3d
       0.008013724 0.14923237 0.1080053 0.055507477
000240 0f 76 3c be 9c 37 0a bd be d9 88 be 04 3c 66 be
       -0.18404411 -0.03374444 -0.26728624 -0.22483832
000250 34 f8 8d 3e 5c 29 96 be 5d 1d a8 bd 70 90 8d 3e
       0.27728426 -0.2932843 -0.082087256 0.2764926
000260 b9 50 b5 3d 74 05 5c be 09 63 61 bd fb d3 a9 bd
       0.08853287 -0.21486455 -0.055026088 -0.08292385
000270 df de 37 be cd 59 28 3b 2a 3d 44 bd 21 91 4b be
       -0.17956112 0.002568829 -0.047909893 -0.19879581
000280 a2 ec 88 3e 9f dd 11 be c3 b1 18 be ee 07 53 3e
       0.26743037 -0.14244698 -0.1491156 0.20608494
000290 ad d4 43 3d ce 4a 90 be 6a 65 8a 3e 60 ea aa 3e
       0.047810245 -0.2818207 0.27030498 0.3338194
0002a0 d3 34 a3 bb 71 f5 9a bd 02 4a 72 be 98 a9 d5 bd
       -0.0049806624 -0.075663455 -0.23661044 -0.10432738
0002b0 b5 26 93 3e 30 ac 84 3e 92 8b 08 be c1 5a 96 3e
       0.2874047 0.2591262 -0.13334492 0.29366115
0002c0 ba d1 16 3e cc fc 7e bd 75 f5 33 3e 55 3d ea 3c
       0.14728442 -0.062252805 0.17574103 0.028593699
0002d0 fa ed f8 bc 80 1b fd 3c b8 c3 17 be 80 07 11 3e
       -0.030386914 0.030896902 -0.14820755 0.14163017
0002e0 ce 69 38 be cc 6a 8b be 72 24 44 3d 57 b8 9e 3d
       -0.18009111 -0.27229917 0.04788632 0.07750004
0002f0 a6 dd a9 3e c7 e7 a8 bd 83 a4 88 be 3b d3 b9 3d
       0.33176917 -0.08247333 -0.26688012 0.09073492
000300 01 0e a3 bd 38 56 8f 3e 56 b5 1b be 1d bc a5 bd
       -0.079616554 0.27995467 -0.15205893 -0.080925204
000310 14 b6 3b 3d 6a b1 7d be 43 78 18 be 63 53 32 3d
       0.04582794 -0.2477471 -0.14889626 0.043536555
000320 88 51 72 be 61 ab 5c be 89 f6 69 3d 61 32 90 bd
       -0.23663914 -0.21549751 0.05711988 -0.07040859
000330 3e 6a 84 be 55 03 80 bd bb 0b 80 3e 20 0c 9e be
       -0.25862306 -0.062506355 0.2500895 -0.30868626
000340 56 e9 4b 3d e4 ee 8b bd 99 e9 a9 3d 68 6f 48 3e
       0.049783073 -0.06832674 0.08296508 0.19573748
000350 92 ef 0f be 69 61 ab 3e 52 9d 76 3e 2e 97 c4 3d
       -0.14056233 0.33472756 0.2408345 0.09599148
000360 8b 2d 81 3e 5b e0 f5 bd c1 2e 55 3e f5 3c 9a be
       0.2523006 -0.12005683 0.20818616 -0.30124632
000370 fc 67 93 3e e1 24 47 be ba f0 8b 3e 8d ce 95 be
       0.2879027 -0.19447662 0.27332097 -0.29259148
000380 41 23 3e be de e8 bf be 8d 7c 2a 3e d0 b2 28 3d
       -0.18568136 -0.3748235 0.16649075 0.041186154
000390 d3 13 2b bd 8a 24 41 be 92 60 ec 3c 67 0e c7 bd
       -0.041766953 -0.18861595 0.028854642 -0.09719544
0003a0 3d 62 95 be 98 83 8f 3e 57 62 37 be 48 b4 9e 3e
       -0.29176512 0.28030086 -0.17908607 0.3099692
0003b0 59 be 93 be da 51 1a be bf ca 5e be 58 2b 15 3e
       -0.2885616 -0.15070286 -0.21757029 0.14567316
0003c0 64 3e 2b 3e 94 b0 ce 3a b3 40 4a 3e 9d f9 57 3e
       0.16723019 0.0015769177 0.19751243 0.21091314
0003d0 b7 fe 7b 3e 80 a6 3c 3e e0 40 06 be fe 7e 84 3d
       0.24608885 0.1842289 -0.13110685 0.06469534
0003e0 03 8a 81 be be 69 aa 3d 9d aa cb 3e e5 ca 93 bd
       -0.25300607 0.0832095 0.39778605 -0.072164334
0003f0 80 d7 6d 3e f5 18 8e be f8 86 e2 3d 7d 19 2a 3d
       0.23226738 -0.27753416 0.110608995 0.041528214

input_net.1.bias f4 [32]
000000 35 f4 a2 be 0e 56 bc bd 89 c9 98 3e 2e 56 93 3e
       -0.3182694 -0.09196101 0.2984126 0.28776687
000010 ac ec 88 be f9 8a 82 be f0 fd ec bb b6 4b 9a 3e
       -0.26743066 -0.25496653 -0.00723242 0.30135888
000020 d4 77 f0 3d 87 2d 69 be bc 20 80 3e e9 c4 84 be
       0.117416054 -0.22771274 0.25024974 -0.2593148
000030 1b a9 4f bc 7f e0 6e 3e dd 66 87 bd 46 b0 8b 3c
       -0.012674595 0.23327826 -0.066114165 0.017051827
000040 d9 3c 58 3e b8 99 18 bd 87 9c 26 be 52 cf 76 3d
       0.21116962 -0.037255973 -0.16270648 0.06025631
000050 fa ef 68 3e 24 e3 34 3d 54 82 a2 3b 2a ee c3 bd
       0.22747794 0.04416193 0.004959384 -0.095669106
000060 96 f9 ec bc 52 5e 4d be d7 7b 68 be 2b 71 3a 3a
       -0.028927606 -0.20055512 -0.22703491 0.00071122
000070 be 64 4b 3e 04 3f a6 bd 85 12 37 3e 18 e4 f1 3d
       0.19862649 -0.08117488 0.17878158 0.118110836

transformer.pe.pe f4 [1, 500, 32]
000000 00 00 00 00 00 00 80 3f 00 00 00 00 00 00 80 3f
       0.0 1.0 0.0 1.0
000010 00 00 00 00 00 00 80 3f 00 00 00 00 00 00 80 3f
       0.0 1.0 0.0 1.0
000020 00 00 00 00 00 00 80 3f 00 00 00 00 00 00 80 3f
       0.0 1.0 0.0 1.0
000030 00 00 00 00 00 00 80 3f 00 00 00 00 00 00 80 3f
       0.0 1.0 0.0 1.0
000040 00 00 00 00 00 00 80 3f 00 00 00 00 00 00 80 3f
       0.0 1.0 0.0 1.0
000050 00 00 00 00 00 00 80 3f 00 00 00 00 00 00 80 3f
       0.0 1.0 0.0 1.0
000060 00 00 00 00 00 00 80 3f 00 00 00 00 00 00 80 3f
       0.0 1.0 0.0 1.0
000070 00 00 00 00 00 00 80 3f 00 00 00 00 00 00 80 3f
       0.0 1.0 0.0 1.0
000080 a4 6a 57 3f 41 51 0a 3f ba 7d 08 3f 0d 94 58 3f
       0.84147096 0.54030234 0.53316844 0.8460091
000090 3e 39 9f 3e 6b 4e 73 3f 3a 23 35 3e 83 f6 7b 3f
       0.3109836 0.9504153 0.17689219 0.9842302
0000a0 76 75 cc 3d 98 b8 7e 3f ae 36 66 3d 68 98 7f 3f
       0.099833414 0.9950042 0.05620449 0.9984193
0000b0 5b 81 01 3d 3c df 7f 3f 42 ab 91 3c a3 f5 7f 3f
       0.031617504 0.99950004 0.017781857 0.99984187
0000c0 57 d6 23 3c b9 fc 7f 3f 5a 44 b8 3b f7 fe 7f 3f
       0.009999833 0.99995 0.0056233825 0.9999842
0000d0 1c 3e 4f 3b ac ff 7f 3f 20 15 e9 3a e6 ff 7f 3f
       0.0031622713 0.999995 0.0017782785 0.99999845
0000e0 6d 12 83 3a f8 ff 7f 3f 13 6a 13 3a fd ff 7f 3f
       0.0009999998 0.9999995 0.0005623411 0.9999998
0000f0 61 cb a5 39 ff ff 7f 3f 53 77 3a 39 00 00 80 3f
       0.00031622782 0.99999994 0.00017782794 1.0
000100 b7 c7 68 3f 33 11 d5 be 0a f2 66 3f b2 e8 dc 3e
       0.9092974 -0.41614684 0.9021307 0.43146282
000110 1b 54 17 3f ec 7b 4e 3f f6 47 b2 3e a6 fa 6f 3f
       0.5911271 0.8065784 0.34820527 0.93741834
000120 f8 6f 4b 3e a5 e5 7a 3f 86 d9 e5 3d f3 61 7e 3f
       0.19866931 0.9800666 0.1122313 0.9936821
000130 c8 70 81 3d f9 7c 7f 3f 5c a5 11 3d 8e d6 7f 3f
       0.063203394 0.9980007 0.03555809 0.9993676
000140 3e d4 a3 3c e5 f2 7f 3f 9b 43 38 3c db fb 7f 3f
       0.019998666 0.9998 0.011246587 0.99993676
000150 d8 3d cf 3b b1 fe 7f 3f 08 15 69 3b 96 ff 7f 3f
       0.006324511 0.99998003 0.0035565514 0.9999937
000160 68 12 03 3b df ff 7f 3f 12 6a 93 3a f5 ff 7f 3f
       0.0019999985 0.99999803 0.0011246821 0.99999934
000170 60 cb 25 3a fd ff 7f 3f 53 77 ba 39 ff ff 7f 3f
       0.0006324556 0.9999998 0.00035565588 0.99999994
000180 c3 81 10 3e 26 70 7d bf d7 45 7e 3f ab 7f ed bd
       0.14112 -0.9899925 0.9932532 -0.11596616
000190 c2 09 50 3f 58 2f 15 3f 6c 2f 02 3f 29 6d 5c 3f
       0.8126489 0.58275366 0.5085361 0.86104065
0001a0 6c 4e 97 3e ef 90 74 3f d7 ee 2b 3e 9e 5d 7c 3f
       0.2955202 0.9553365 0.16790329 0.9858035
0001b0 c0 ff c1 3d 4f d9 7e 3f 4e 69 5a 3d c3 a2 7f 3f
       0.094726086 0.99550337 0.053323083 0.9985773
0001c0 1f b9 f5 3c 83 e2 7f 3f c6 31 8a 3c ad f6 7f 3f
       0.0299955 0.99955004 0.016869437 0.9998577
0001d0 0d 6e 1b 3c 0d fd 7f 3f a8 cf ae 3b 11 ff 7f 3f
       0.009486687 0.999955 0.005334813 0.99998575
0001e0 92 9b 44 3b b5 ff 7f 3f 17 1f dd 3a e8 ff 7f 3f
       0.0029999954 0.9999955 0.0016870227 0.99999857
0001f0 10 b1 78 3a f9 ff 7f 3f 7e d9 0b 3a fe ff 7f 3f
       0.00094868336 0.9999996 0.0005334838 0.9999999
000200 cf bd 41 bf 30 55 27 bf ec 49 47 3f 9e af 20 bf
       -0.7568025 -0.6536436 0.7784717 -0.6276797
000210 de 1d 74 3f b1 2e 9a 3e bc 1f 27 3f ed eb 41 3f
       0.95358074 0.30113748 0.652828 0.7575062
000220 d7 61 c7 3e a7 ca 6b 3f c5 65 64 3e 09 8d 79 3f
       0.38941833 0.921061 0.22304447 0.9748083
000230 88 2e 01 3e 69 f4 7d 3f c8 8d 91 3d 46 5a 7f 3f
       0.12615407 0.99201065 0.07107121 0.9974712
000240 db cb 23 3d 94 cb 7f 3f a0 40 b8 3c 6c ef 7f 3f
       0.039989334 0.9992001 0.022491753 0.99974704
000250 c9 3c 4f 3c c2 fa 7f 3f a7 14 e9 3b 58 fe 7f 3f
       0.01264877 0.99992 0.0071130577 0.9999747
000260 57 12 83 3b 7a ff 7f 3f 0c 6a 13 3b d6 ff 7f 3f
       0.003999989 0.999992 0.0022493629 0.9999975
000270 5e cb a5 3a f3 ff 7f 3f 52 77 3a 3a fc ff 7f 3f
       0.0012649109 0.9999992 0.0007113117 0.99999976
000280 10 7c 75 bf 2c 3c 91 3e d8 da a5 3e 40 32 72 bf
       -0.9589243 0.2836622 0.32393527 -0.94607925
000290 7f fc 7f 3f e9 72 29 bc ab ca 46 3f f1 4c 21 3f
       0.99994653 -0.010342338 0.77652997 0.6300803
0002a0 43 77 f5 3e 40 a9 60 3f ed 11 8e 3e 7c f2 75 3f
       0.47942552 0.87758255 0.2774805 0.96073127
0002b0 1d 3c 21 3e 81 ce 7c 3f 21 db b5 3d 1e fd 7e 3f
       0.15745588 0.987526 0.08879686 0.99604976
0002c0 f4 b6 4c 3d 19 ae 7f 3f fb 4d e6 3c 19 e6 7f 3f
       0.049979165 0.99875027 0.028113356 0.99960476
0002d0 7e 85 81 3c cf f7 7f 3f bb ac 11 3c 69 fd 7f 3f
       0.015810724 0.999875 0.00889128 0.9999605
0002e0 dd d6 a3 3b 2e ff 7f 3f 89 44 38 3b be ff 7f 3f
       0.004999979 0.9999875 0.0028117022 0.99999607
0002f0 33 3e cf 3a eb ff 7f 3f 26 15 69 3a f9 ff 7f 3f
       0.0015811383 0.99999875 0.0008891396 0.9999996
000300 8c 0f 8f be b8 cd 75 3f 76 e5 6b be 53 1d 79 bf
       -0.2794155 0.96017027 -0.23036751 -0.9731037
000310 4e 78 72 3f 6d 3f a4 be 88 30 60 3f 35 2f f7 3e
       0.9471482 -0.3207964 0.8757405 0.48278204
000320 68 8c 10 3f 32 49 53 3f fc 7d a9 3e e2 90 71 3f
       0.5646424 0.8253356 0.3310393 0.943617
000330 6e 20 41 3e e3 67 7b 3f c2 19 da 3d 51 8b 7e 3f
       0.18860027 0.98205394 0.10649444 0.9943133
000340 d1 9c 75 3d 12 8a 7f 3f be 2c 0a 3d b3 da 7f 3f
       0.059964005 0.99820054 0.033734076 0.99943084
000350 43 6c 9b 3c 34 f4 7f 3f 05 cf 2e 3c 45 fc 7f 3f
       0.018972522 0.99982 0.0106694745 0.9999431
000360 58 9b c4 3b d2 fe 7f 3f 03 1f 5d 3b a1 ff 7f 3f
       0.0059999637 0.999982 0.0033740408 0.99999434
000370 08 b1 f8 3a e2 ff 7f 3f 7c d9 8b 3a f7 ff 7f 3f
       0.0018973658 0.9999982 0.0010669674 0.99999946
000380 46 30 28 3f bd ff 40 3f 70 b6 36 bf 5e 4f 33 bf
       0.6569866 0.75390226 -0.7137213 -0.7004298
000390 6e e8 4c 3f bc 74 19 bf 44 84 72 3f ba f8 a3 3e
       0.8004216 -0.5994375 0.9473307 0.320257
0003a0 72 eb 24 3f b3 cc 43 3f de 60 c4 3e c6 6b 6c 3f
       0.6442176 0.7648422 0.38355154 0.9235195
0003b0 50 d3 60 3e ea c0 79 3f ba 46 fe 3d e9 04 7e 3f
       0.2195561 0.9755999 0.12415834 0.9922624
0003c0 32 3e 8f 3d 81 5f 7f 3f 5e 31 21 3d 3b cd 7f 3f
       0.06994285 0.997551 0.03935372 0.9992253
0003d0 a2 52 b5 3c f2 ef 7f 3f 2a f1 4b 3c ec fa 7f 3f
       0.022134129 0.999755 0.012447635 0.9999225
0003e0 c5 5f e5 3b 65 fe 7f 3f bc fc 80 3b 7e ff 7f 3f
       0.006999942 0.9999755 0.0039363783 0.99999225
0003f0 ed 11 11 3b d7 ff 7f 3f 66 28 a3 3a f3 ff 7f 3f
       0.0022135929 0.99999756 0.0012447953 0.9999992

transformer.blocks.0.mha.qkv_linear.weight f4 [96, 32]
000000 e8 e2 3b 3e be 4e 5d 3e 55 41 42 3e dd 2b bc 3d
       0.18348277 0.21612069 0.18970235 0.09188054
000010 c4 d4 1e be 71 eb c6 3d 7b ae dc bd 8a c6 dc 3d
       -0.15510851 0.09712876 -0.10775467 0.10780056
000020 4c 30 8b 3d 11 57 41 3e 8f ec 13 3d c6 5d 67 bd
       0.06796321 0.1888087 0.03611427 -0.056485914
000030 5d 17 57 3e 46 e4 55 3e bf f4 68 bd 7d e4 48 be
       0.21005006 0.2088786 -0.056874033 -0.19618411
000040 d9 12 6c 3d 2f 71 9a bc be e5 75 bd dd 26 34 3e
       0.057635162 -0.018852798 -0.060033552 0.1759295
000050 09 e2 d1 bd 1a f4 49 be 86 52 31 be 90 da 69 bd
       -0.10248191 -0.19722024 -0.17316636 -0.057093203
000060 4c ed 21 be b9 11 83 3d 9b e0 06 be 70 85 01 3e
       -0.15813178 0.06399865 -0.13171618 0.12648559
000070 37 75 fc 3d 3f 7d 5d bd 3a dc 06 3e 89 13 66 3e
       0.123270445 -0.054074522 0.13169947 0.2246839
000080 54 be d7 bd 18 e7 5d be fe a1 4d 3e 08 89 e1 3c
       -0.10534349 -0.21670187 0.20081326 0.027531162
000090 77 01 37 be ae 82 ab 3d a9 a4 4c bc f8 54 4f 3d
       -0.17871653 0.083745345 -0.01249043 0.050618142
0000a0 11 a3 fb bd 3e 6f 29 3e 64 81 f6 bd 31 fa b2 3d
       -0.12286962 0.16546342 -0.12036398 0.087391265
0000b0 ee 07 df bd 17 4b 13 be 52 46 34 bb 12 8c 84 be
       -0.10890184 -0.14384113 -0.0027507734 -0.25888115
0000c0 6f 02 9e 3d 47 8a c9 3d 46 f4 40 3d 88 25 12 3d
       0.07715308 0.098408274 0.047107957 0.035680324
0000d0 34 eb 1b 3e 1c af 36 be dd c3 18 bd 09 15 27 be
       0.15226442 -0.17840236 -0.037296165 -0.16316618
0000e0 08 bf 48 be 4d 11 37 3e 31 01 99 3d 15 81 3d 3d
       -0.19604123 0.17877693 0.0747093 0.04626568
0000f0 bd 5c 5f be b0 7a c4 3d c4 9f d7 bb 28 7a 1e be
       -0.2181272 0.09593713 -0.006580325 -0.15476286
000100 67 99 12 3e 36 12 a1 3d 68 38 08 3d 7f fc 0f 3e
       0.14316331 0.078648016 0.03325692 0.14061163
000110 f1 5a 50 3e 6d a4 2c be 44 64 41 3e 78 3e c9 bd
       0.20347191 -0.16859598 0.18885905 -0.09826368
000120 14 62 20 be 70 fe 25 be 47 1e 32 be cb a7 4e be
       -0.15662414 -0.16210341 -0.17394362 -0.20181195
000130 c2 0c 47 3e 41 fd 47 be 1e 7a 49 3e 8b e1 08 3e
       0.1943846 -0.19530202 0.1967549 0.13367288
000140 8c 37 28 3d 45 6e 5d be 06 52 3e 3d 9f d9 0a 3e
       0.0410686 -0.21624096 0.046464942 0.13559578
000150 5c 38 0d be 71 7d be 3d 13 d2 d6 3c 03 c5 0c 3e
       -0.1379103 0.0930127 0.026223218 0.13747029
000160 6f b3 94 3d 7b 0c 07 be db 93 09 be 20 ad 6f 3e
       0.07260787 -0.13188355 -0.13435309 0.23405886
000170 6d 40 37 bd 64 ea 3c be 57 3d 05 3e 78 41 4e 3e
       -0.044739176 -0.18448788 0.1301168 0.20142162
000180 5d 18 39 3e 3a 5f 95 bc 7d 19 d2 3d 3c 46 7d be
       0.180757 -0.018233884 0.10258768 -0.24733824
000190 34 11 2a be 29 2b 86 3d 1b ef 01 3e ba f4 67 be
       -0.16608125 0.06551201 0.12688868 -0.2265195
0001a0 98 70 5a be fc 83 0d bb 70 92 83 3d 75 37 c0 bb
       -0.21332014 -0.0021593561 0.06424415 -0.005865986
0001b0 a4 ab cb 3c e1 e0 8a be 3d d7 92 bd 1e a3 34 3d
       0.024862118 -0.27124694 -0.0716996 0.044100873
0001c0 99 68 05 be 66 89 3d be 20 e8 83 3e 24 9d dc 3b
       -0.13028182 -0.18509445 0.25763035 0.0067326
0001d0 06 0a ea 3d ef 10 63 3c a6 50 f6 3d a2 4d 9d 3d
       0.11427693 0.013859018 0.12027101 0.07680823
0001e0 2a 46 24 be 08 75 12 be 59 a5 fb bc 11 dc a1 3c
       -0.1604239 -0.14302456 -0.030718492 0.019758256
0001f0 fb 40 09 3e cb 27 8e 3d cc d9 53 be 58 6d 47 be
       0.13403694 0.06941184 -0.20688552 -0.19475305
000200 d6 39 c9 bd dc d0 86 bd 55 82 a7 bd 25 ae 39 3e
       -0.098254845 -0.065828055 -0.08179156 0.18132837
000210 b0 04 1a 3e 01 b7 cb bd f3 08 aa 3d 25 18 18 bd
       0.1504085 -0.099470146 0.08302488 -0.0371324
000220 72 cf 3f 3e 2b 9d b3 3d e7 ec 4c bd 7c 36 35 be
       0.18731478 0.08770212 -0.050030615 -0.17696565
000230 9e 31 9e bd 7c dc 0d be 9d ba 22 3e b5 fb 79 bd
       -0.077243075 -0.1385364 0.158915 -0.061031062
000240 65 fd 21 3e e9 f1 9a bd 27 4d 27 be 78 6f 24 be
       0.15819319 -0.07565672 -0.16338025 -0.16058147
000250 b8 fa 4c bd b9 bf d1 3d 60 46 ba bd ad c7 2e be
       -0.05004379 0.10241646 -0.09095454 -0.17068358
000260 64 a1 37 be bb 60 88 3d d1 19 1a be fd 43 79 3d
       -0.1793266 0.06659075 -0.1504891 0.060855854
000270 fa d6 cb bd 3e 52 9a bd 97 27 07 3e f6 e9 82 3d
       -0.09953113 -0.07535218 0.13198696 0.06392281
000280 e2 cd 11 be da 2f 1b 3e 4c 42 5b be 05 a1 56 3e
       -0.14238694 0.15154973 -0.21412009 0.20959862
000290 5a 5b aa bd d5 be 30 3e 7a 4c 89 bc d1 3f ec 3d
       -0.08318205 0.17260297 -0.0167601 0.115356095
0002a0 f4 79 24 be 8d 3f aa bd a1 23 a7 3d 23 1a cf 3d
       -0.16062146 -0.083129026 0.081610925 0.10112407
0002b0 c4 7e 53 3e f4 e8 8c 3d 5d 1a eb 3d a3 2c 68 bd
       0.20653826 0.0688037 0.11479638 -0.056683194
0002c0 95 4f 0e 3e e9 1f 29 be 79 53 2d 3d 44 ef 33 bd
       0.13897546 -0.16516079 0.042315934 -0.043929353
0002d0 46 60 5f be 4c f5 3c 3e 20 ec da bc 6e 83 13 be
       -0.21814069 0.18452948 -0.026723921 -0.14405605
0002e0 ae b0 83 3d 0e e2 cb 3d 94 fa 94 3d 46 be 28 be
       0.06430183 0.09955226 0.072743565 -0.16478834
0002f0 77 3a b6 bd f7 9b e3 3c 7a 58 d1 3d 66 50 d1 bd
       -0.0889787 0.02778433 0.10221954 -0.10220413
000300 cb c5 28 be 96 e9 22 be 03 bf 01 be ea 25 a8 bd
       -0.16481702 -0.15909418 -0.12670521 -0.082103565
000310 d1 33 b4 bd f2 b1 42 3e 0e 1e 3a 3d 75 89 5f 3d
       -0.08798946 0.19013193 0.04543882 0.05457445
000320 6a 79 57 be 5a 25 88 bd 39 7a 9c bd b6 08 56 be
       -0.2104241 -0.06647749 -0.076404996 -0.2090176
000330 8f 6c ad bd e3 18 8d bd 52 5f 3a bd 88 1a 46 be
       -0.084679715 -0.068895124 -0.04550106 -0.19346058
000340 d1 93 a5 3d 58 bc 10 bb 14 5f 9d bd 10 c8 54 3e
       0.08084834 -0.0022084918 -0.0768415 0.20779443
000350 b3 ce 2e be e5 49 09 be 5c 79 26 3d 82 ac 38 3e
       -0.17071037 -0.13407095 0.04064308 0.18034557
000360 ea 6d 9b bd 03 49 c5 bd 70 f5 9a 3a 68 39 0a 3e
       -0.07589324 -0.096330665 0.0011822414 0.13498461
000370 5c 80 77 3e 41 d0 07 bd 42 4d 8b bd f5 89 1e bd
       0.24170059 -0.03315759 -0.06801845 -0.038705785
000380 28 38 e1 bd 12 55 7c 3c 3e 04 9d 3d 99 59 36 3d
       -0.10997039 0.015401142 0.07666825 0.04451904
000390 23 81 c8 bd 1c 5e 2d be bc 0b eb 3d 5e 20 2f 3e
       -0.09790256 -0.16930431 0.114768475 0.17102191
0003a0 d2 c8 98 bd 7f 61 ab bd d6 87 39 3e 17 68 74 bd
       -0.074601784 -0.08368205 0.18118224 -0.05966958
0003b0 96 1b 25 be 6c 04 40 be 33 4f 33 bd 63 89 df bd
       -0.16123804 -0.18751687 -0.043776702 -0.10914876
0003c0 36 1b 83 3d 1d 69 18 be f2 d0 c3 3c 57 3d 8c bd
       0.064016744 -0.14883848 0.023903344 -0.06847637
0003d0 be 8e 65 be 16 5d 54 bd ab aa e3 bd 32 6b e6 3d
       -0.22417733 -0.051846586 -0.11116537 0.11250915
0003e0 31 78 06 bd c5 e2 23 be 85 8a 49 be 03 02 8f bb
       -0.032829467 -0.16004474 -0.19681747 -0.0043642535
0003f0 7b 38 09 3d 46 25 3e 3e 82 c5 8a 3d 91 3c 5d be
       0.03350113 0.18568906 0.06775953 -0.21605136

transformer.blocks.0.mha.qkv_linear.bias f4 [96]
000000 80 01 a0 bc 52 dc 81 bc 52 6d f3 bb f4 e4 f3 bc
       -0.019531965 -0.015852127 -0.0074288035 -0.02977226
000010 87 07 8b 3b 28 f6 0a 3c be c7 77 3c 0f 42 f7 bc
       0.0042428407 0.00848154 0.015123306 -0.030182866
000020 3e 31 af 3c 29 7e b7 3c 69 53 fe 3c e5 9a 09 3d
       0.021385785 0.022399025 0.031045632 0.033594985
000030 d8 f9 4c 3c bc 8d 31 bc c5 a6 03 3c 3b d8 24 3b
       0.012510739 -0.010837015 0.008035366 0.0025153297
000040 a0 43 20 bd 6d 6c 88 3c b7 fc eb bc 12 3d dc bc
       -0.039126992 0.016653264 -0.028807027 -0.02688459
000050 81 89 af 3c 54 fb 9a bc 03 6b a2 bc 47 30 cb ba
       0.021427872 -0.01891867 -0.019826418 -0.0015502059
000060 3f e7 b0 bc 66 90 39 bc 8c f2 a6 bc 03 8e 4a 3c
       -0.021594642 -0.011325931 -0.020379327 0.01236296
000070 80 cd 50 bb 38 c3 38 3c 7c a7 45 bb 69 f0 c5 3c
       -0.0031860769 0.0112770125 -0.0030159643 0.024162488
000080 47 f3 9b b8 44 2d 25 b8 10 c2 b4 38 d0 df ca 38
       -7.43629e-05 -3.9381222e-05 8.619216e-05 9.673799e-05
000090 30 64 53 b8 b8 4e c9 b8 b2 13 b3 b8 fc 30 85 b9
       -5.0399627e-05 -9.5990894e-05 -8.539054e-05 -0.00025404233
0000a0 ed 28 8d 38 d6 94 0c b7 44 de d7 36 3a 82 06 b8
       6.731027e-05 -8.379304e-06 6.4333744e-06 -3.2069373e-05
0000b0 53 5e fb b8 e5 93 da b7 82 dd c6 37 f2 a2 0e b8
       -0.00011986182 -2.6056494e-05 2.3706587e-05 -3.4007193e-05
0000c0 bf f6 b4 b8 e7 b5 f4 38 4f 65 db b7 31 44 a8 37
       -8.629029e-05 0.000116687086 -2.615401e-05 2.0058915e-05
0000d0 94 33 06 b8 01 c5 bc b8 9c 06 ee 37 05 fa f5 38
       -3.1996125e-05 -9.0012334e-05 2.8374889e-05 0.0001172908
0000e0 94 a7 16 38 37 27 80 b8 5a 36 2f 38 b9 66 09 b9
       3.5918856e-05 -6.11082e-05 4.177387e-05 -0.00013103605
0000f0 25 f6 3e 38 bc 1f 21 b6 85 43 f7 38 8b 4a 8e b8
       4.552877e-05 -2.4009341e-06 0.00011790454 -6.784972e-05
000100 22 f3 da bc b1 95 5b bc 0a b7 3e ba 24 dc 41 3c
       -0.026727263 -0.013402388 -0.00072752 0.011832271
000110 bc 64 5c bb 45 ff 1a 3b fd 11 4a b8 db 32 36 3c
       -0.0033629378 0.0023650688 -4.8177306e-05 0.011120523
000120 55 39 b1 bc 37 3e 69 bc 3a 06 c7 bb 0d 65 86 3b
       -0.021633783 -0.014236025 -0.0060737403 0.0041014017
000130 d0 b1 6a ba 24 df 01 bc 75 4a 5c bc d1 2c 5b bc
       -0.0008952888 -0.007926736 -0.013445486 -0.013377384
000140 7b f0 a8 3b a0 83 16 bc 0d 48 ea 3b c5 64 c9 3b
       0.0051556206 -0.009186655 0.0071497024 0.006146046
000150 1c d8 71 bb 1e 2a 88 3b 5b 92 18 bc 07 06 fa 3a
       -0.0036902493 0.0041554114 -0.009312238 0.0019075283
000160 46 b9 63 bb 82 5e c8 bc a4 f8 16 3c 5f 1b 95 3c
       -0.0034747883 -0.024459127 0.009214554 0.018201528
000170 76 e8 8a 3a d8 07 3a 3c 62 08 91 3b 3b 35 9d bc
       0.0010597843 0.011354409 0.004426048 -0.019190421

transformer.blocks.0.mha.out_linear.weight f4 [32, 32]
000000 c8 f6 44 be bc b2 3c be e4 82 9d be f8 68 9a be
       -0.19234765 -0.18427557 -0.30763924 -0.3015821
000010 31 b5 93 be de 11 8b be 2e fa 7a be e7 13 9a be
       -0.28849176 -0.2716207 -0.24509498 -0.3009331
000020 68 be 15 be 83 43 3b be a0 df 25 3e 49 d5 26 be
       -0.14623415 -0.18287472 0.16198587 -0.162923
000030 4d 4c 7a 3c 17 ad b5 be ee 86 9d 3e 06 5b 6a 3e
       0.015276981 -0.3548362 0.30767006 0.22886285
000040 3c 3f db 3d bc 79 4a 3e 7e 7c 98 3c 3d b2 62 3e
       0.107054204 0.19773 0.01861405 0.22138305
000050 a0 36 ba bd 60 10 7b be 0f 5f 91 3e 16 b1 1d 3e
       -0.0909245 -0.24517965 0.28392836 0.15399584
000060 d6 68 54 be ef c2 44 3e 15 51 7a bd f6 63 d7 ba
       -0.20743117 0.19214986 -0.061112482 -0.0016432989
000070 b7 6a ee 3b 39 a6 79 be f3 71 43 be ea 6c 40 3e
       0.007275905 -0.24379815 -0.19086437 0.18791547
000080 7a 3a d6 3e de 8d 31 bd 78 0d 80 3e 5a ef dc bb
       0.4184149 -0.043348186 0.25010276 -0.0067424
000090 a3 fa c4 be 75 d6 4f 3e 1d fa 89 be cc 93 4b bd
       -0.3847247 0.20296653 -0.26948634 -0.049701497
0000a0 59 36 eb 3d 66 7a 4c 3b 6b 2f 87 3e b0 a4 2f be
       0.11484975 0.0031200885 0.26403365 -0.17152667
0000b0 8e ce f3 bc db ec 74 3d 3c 0b 17 bb 80 f3 92 3e
       -0.029761579 0.059796195 -0.0023047468 0.287014
0000c0 6a 4f 95 3e 57 68 58 3e 19 5b 30 3e 27 8e 2b 3e
       0.2916215 0.21133552 0.17222251 0.16753446
0000d0 a1 cb da bd 82 8d 22 be 70 a8 a1 3e 0d fe 75 3e
       -0.106833704 -0.15874293 0.3157382 0.24022694
0000e0 bd b2 35 be 23 7a 10 be 75 68 d1 3d 20 24 1a 3e
       -0.17743964 -0.14109091 0.10225002 0.15052843
0000f0 b4 97 42 be 45 fd 78 be 39 6f a6 bd 01 f5 3a be
       -0.19003183 -0.24315365 -0.08126683 -0.18257524
000100 40 ca 38 3e c0 ab 65 be e6 4d 88 3e 9d 19 4b be
       0.18045902 -0.22428799 0.26621932 -0.1983399
000110 be 51 bc bd 4c fb 4b 3e c0 d1 82 bd 2c dc b0 3a
       -0.091952786 0.19920081 -0.06387663 0.0013493351
000120 9c 43 81 be 72 f3 7e be cf 38 97 3e ea 41 8e 3e
       -0.25246894 -0.24897555 0.2953553 0.27784663
000130 4c 1a 05 be b0 26 50 be 1a 46 98 be da 9c 10 3e
       -0.12998313 -0.20327258 -0.29740983 0.14122334
000140 9d 44 8f 3e 49 73 93 3e 66 81 6b 3e c9 71 a8 bd
       0.27982035 0.28798893 0.2299858 -0.08224828
000150 66 b0 49 3e 53 72 88 3e 0c b8 55 3e ef d8 3a bd
       0.19696197 0.26649722 0.2087099 -0.04561704
000160 e9 32 aa 3e 0a 63 5b 3e 77 87 8c 3e 83 18 8e 3e
       0.33241966 0.21424499 0.274471 0.27753076
000170 3d 04 98 bc 8c 6f 86 3d 1e bb c3 be 01 92 18 3d
       -0.018556708 0.06564245 -0.38228697 0.037248615
000180 9f e4 60 3e bb b8 94 3e 32 8e a3 be 9c 90 17 3e
       0.21962212 0.29047188 -0.31944424 0.14801258
000190 eb 58 9c 3e 10 19 7a 3d b9 75 ba be 03 e4 82 be
       0.3053659 0.061059058 -0.3641794 -0.25564584
0001a0 a8 76 71 3e 66 93 84 3d 0e 51 1c 3e 89 e6 8d bd
       0.2358042 0.064734265 0.15265295 -0.06928737
0001b0 1b 30 05 be ee 8f 80 3e 0f 7f db 3d 9e 33 8b be
       -0.13006632 0.2510981 0.10717594 -0.27187818
0001c0 7b ac 39 be 3e 60 01 3e 60 95 3a 3e 82 91 75 be
       -0.18132202 0.1263437 0.18221045 -0.23981288
0001d0 08 d1 24 be 84 c2 33 3d db 9f a6 bd 1f 8c 98 3e
       -0.16095364 0.043886676 -0.08135959 0.29794404
0001e0 69 78 de bd 8f a7 47 3d e6 28 15 3e c2 50 b3 bd
       -0.1086281 0.04874378 0.14566383 -0.08755638
0001f0 52 67 0f 3e cb b7 2d be 82 9a 19 3e 84 f6 6c 3e
       0.14004257 -0.16964643 0.15000346 0.23140913
000200 c7 0a 03 3e 30 71 94 be 95 b2 d0 3d 1a 48 65 3e
       0.1279708 -0.28992605 0.10190312 0.22390786
000210 14 cd c7 bd 8b e5 81 3c 4d b9 a1 3d 49 21 7a bd
       -0.097559124 0.015856525 0.078966714 -0.0610669
000220 44 da 59 3d 11 f2 1a be 6f 52 5a 3e 1d c8 65 be
       0.05318667 -0.15131404 0.21320508 -0.22439618
000230 11 c0 44 be 30 10 1b 3e 17 b5 c1 3e 91 e5 bd be
       -0.19213893 0.15142894 0.37833473 -0.37089208
000240 4a 13 20 3c 8e a7 6e 3e bd 0c a9 3e b5 7f 59 bc
       0.009770224 0.23306105 0.3301753 -0.013275077
000250 0b 15 87 be 0d 88 e3 bd 11 c6 95 be 04 40 8e 3e
       -0.26383242 -0.11109934 -0.29252675 0.27783215
000260 82 79 95 3c b7 fd 3f bd f5 1d 8e be 5b a8 b6 3d
       0.018246416 -0.04687282 -0.2775723 0.0891883
000270 96 32 0e 3d 86 e3 b1 3d b3 21 85 bc 2c 9d ce 3d
       0.03471621 0.08685975 -0.01625142 0.10088572
000280 87 b0 b1 be 8c 32 07 3e da ac 50 be 3f 2c 90 bd
       -0.34704992 0.13202876 -0.20378438 -0.07039689
000290 81 3b 4b be 30 5f 29 3d d2 72 b9 3d 97 01 95 3e
       -0.19846918 0.041350543 0.09055103 0.29102775
0002a0 f4 28 30 be cf c1 42 be d5 21 6d bc ef 00 de 3e
       -0.17203122 -0.19019245 -0.014473398 0.43360087
0002b0 31 ef 90 be 1b f2 64 3d c9 89 c6 be ce 25 74 be
       -0.2830749 0.055894952 -0.38776997 -0.23842546
0002c0 85 60 ac bc c4 f1 59 3e 97 f1 3a 3d 9f ea 83 3c
       -0.021042118 0.21283633 0.045640554 0.016103087
0002d0 0e b8 75 be a6 ab da bd 04 6b ec 3d 1e 03 88 3d
       -0.23995993 -0.106772706 0.11543849 0.066412196
0002e0 b5 86 69 3e db 91 a9 be db 52 bc 3d db 4d 44 bd
       0.22805293 -0.3311909 0.09195491 -0.04792581
0002f0 86 bb 04 3e f9 ff 8e be 39 bd 12 3d 23 b5 af 3c
       0.1296216 -0.27929667 0.035824988 0.021448677
000300 b8 65 29 be fe 3c 81 3d 99 6b 79 be 61 a8 52 3d
       -0.16542709 0.063104615 -0.24357451 0.05143011
000310 e8 ff b0 3e e5 0f a1 be c3 81 0d 3d 95 67 da 3b
       0.3457024 -0.3145744 0.03454758 0.00666518
000320 b2 f3 48 3c 91 d6 8d be 42 8b f5 bb ff ec d0 3c
       0.012265133 -0.27702764 -0.0074934075 0.025503634
000330 9a 35 82 be 38 e8 38 bd 67 09 7b 3d ce 7d 1f bc
       -0.2543152 -0.045143336 0.061288264 -0.009734584
000340 fb 12 34 bd 13 23 87 3e ff 2d 3e 3e 4d 79 77 be
       -0.043963414 0.26393947 0.18572234 -0.24167366
000350 e8 5a aa be ca 0a a6 3e ea 3b 81 be 61 04 57 3e
       -0.3327248 0.32430106 -0.25241023 0.20997764
000360 0b 13 9d be 37 0b 7e be 67 24 ba 3e 6e 4f a5 bb
       -0.3067859 -0.24808966 0.36355898 -0.005044869
000370 f5 98 81 be ad 00 22 be d0 0e a7 3b 7c ac e4 bd
       -0.2531201 -0.1582057 0.0050982013 -0.11165711
000380 25 d6 9d bd 85 68 6b bd 55 d0 d7 bd d3 75 94 3e
       -0.077068605 -0.057472724 -0.10537783 0.28996143
000390 e0 a5 ac 3e 78 92 8d 3d a5 af cb bd 54 3a 86 be
       0.33720303 0.06912702 -0.09945611 -0.26216376
0003a0 18 6d 71 be 7a 44 ab 3d 1f d1 48 3e 8f 25 91 3e
       -0.23576772 0.0836267 0.19611023 0.28348967
0003b0 71 06 25 be 37 00 fb bd 02 ec 3b be 02 63 e0 bd
       -0.16115738 -0.122559 -0.18351749 -0.10956384
0003c0 1b 6e 8f 3e 50 36 1c 3c a6 1f b3 bd 56 cd a7 3d
       0.2801369 0.0095344335 -0.08746271 0.081934616
0003d0 14 fd 39 be c0 f5 56 be 07 45 9b bc 12 18 fe 3c
       -0.18162948 -0.20992184 -0.018953813 0.031017337
0003e0 4b 56 62 3d 08 68 51 bd 81 94 00 be 97 6d 85 bd
       0.055258077 -0.051124603 -0.1255665 -0.06515043
0003f0 e9 ed 49 be 6a 38 b5 bd d0 a8 26 be aa 78 7c be
       -0.19719662 -0.08848651 -0.16275334 -0.24655405

transformer.blocks.0.mha.out_linear.bias f4 [32]
000000 e0 59 8f bb 39 7b e7 bb 9f 5a 4a 3a f5 62 be bc
       -0.0043747276 -0.00706425 0.0007719192 -0.023240546
000010 ed db 2f 3b da 5d 61 3c c1 bb 24 3c d4 61 96 3a
       0.0026833967 0.013755286 0.01005453 0.0011473247
000020 1c 7d e7 bb 1f b1 30 3a 0b 87 8a 3b aa 11 43 3c
       -0.0070644747 0.000674026 0.004227524 0.011906067
000030 2a 36 e0 bb 3d 5f 0d 3c 64 f1 66 3c 8a ee bc 3c
       -0.0068423944 0.008628664 0.014095638 0.023062963
000040 63 45 8f bc af 05 5d bc d9 d1 22 3c 1e 6c 3f bc
       -0.01748914 -0.013490125 0.009937727 -0.011683492
000050 e4 3b fa ba 85 4b 38 ba f4 e9 09 bc a7 a1 fe 3c
       -0.0019091335 -0.0007030296 -0.008417595 0.031082941
000060 bb ed a2 3c 4c c8 a1 3b e8 bd 46 bb 24 c3 91 3c
       0.01988875 0.0049372073 -0.0030325595 0.017793246
000070 a9 69 b3 bb 30 65 55 bb 04 e2 3c bc 81 bb 03 bc
       -0.005475242 -0.0032561533 -0.011528496 -0.00804031

transformer.blocks.0.fw.0.weight f4 [64, 32]
000000 e4 22 fe 3d 7e 0c 04 be 81 10 02 be 67 a1 34 3d
       0.124089986 -0.1289539 -0.12701608 0.044099238
000010 e0 a3 3f 3b 1a a6 a2 3d 78 3c 0a bd d8 d0 91 3d
       0.0029241964 0.079418376 -0.033749074 0.07119912
000020 95 a8 57 3d 2e 67 fb bd 6f 6a 8a bd 99 a6 09 be
       0.052651007 -0.12275539 -0.06758582 -0.13442458
000030 b5 76 41 3d c6 fd 1c be 10 14 ab bd b7 1f c0 3d
       0.04723235 -0.15331182 -0.08353436 0.09381049
000040 4a c1 ea bd 7a f1 c3 3d f8 a7 e0 3d 1f 81 28 bd
       -0.11462648 0.095675424 0.109695375 -0.041138764
000050 85 31 5a 3d 47 e0 31 be c5 52 07 be 7d d7 1e bd
       0.05326988 -0.17370711 -0.13215168 -0.038779724
000060 93 e8 08 3e 60 be dd bd 2f b6 99 3d 29 b0 90 3d
       0.1336997 -0.10827327 0.07505452 0.0706485
000070 26 75 d4 bd 2e ad f2 3d b1 ed 1d 3e 3a 05 bc bd
       -0.10373907 0.11849438 0.15422703 -0.091806844
000080 47 3b 0f 3e 83 22 20 be 72 99 0c be 40 33 12 be
       0.13987456 -0.15638165 -0.1373041 -0.14277363
000090 52 39 aa bd 9e 7d 16 be e1 84 20 3e da c6 c0 bd
       -0.08311714 -0.14696357 0.1567569 -0.09412928
0000a0 4e 57 d8 3d 14 9f 18 3e 5c 20 b7 bd ed a9 a4 bd
       0.10563527 0.14904433 -0.08941719 -0.08040223
0000b0 39 16 c6 bd 35 52 72 3d 6b 73 f9 3d a3 4c ff 3d
       -0.096722074 0.05916043 0.12180217 0.12465789
0000c0 08 f0 ba 3b 25 02 91 3d 98 a4 aa bc 0b 98 0e bd
       0.0057048835 0.07080487 -0.020830438 -0.03481297
0000d0 37 6a 2c 3d 4b fe 37 bc 87 aa 16 3e 4e 6b 28 3e
       0.042093482 -0.011230062 0.14713489 0.16447183
0000e0 64 31 fd bd 1b 16 e3 bd 0d 36 06 3e 98 47 a5 3c
       -0.12362936 -0.11088201 0.13106556 0.02017574
0000f0 0b 71 17 bd 4a 63 8c 3d b5 45 41 3c d8 dd 33 3d
       -0.03697304 0.068548754 0.011796405 0.04391274
000100 61 7c 98 bd 3f 37 b8 3d 07 c9 aa 3d d9 2f 15 3d
       -0.074455984 0.08994912 0.08339124 0.036422584
000110 2e 3b 3d 3e 6d 56 4c bb 8a 26 2a 3e 90 c5 02 3e
       0.18479607 -0.0031179443 0.16616264 0.12770677
000120 d1 9c cf 3c 6b 2a 93 bd 6b 1c 08 3d 92 5d 0d 3e
       0.02534333 -0.07185825 0.033230226 0.13805225
000130 de d0 c9 3c 07 57 32 3b db b5 cf 3d 45 46 96 bd
       0.024635728 0.0027212517 0.10142108 -0.073376216
000140 8d 91 cf bd 2e 7f b4 bd 91 da 2b be 06 6e 7b 3d
       -0.101351835 -0.0881332 -0.16782595 0.061384223
000150 0b 31 fd 3b 30 8e ee bd 6a d4 d2 bd 4e 68 f4 bd
       0.0077267936 -0.11648214 -0.10294421 -0.11933957
000160 36 29 c4 bd 7b fa 92 3d 4b ff 04 3d d0 90 be bd
       -0.09578173 0.071766816 0.03247003 -0.093049645
000170 13 a9 11 3e 3a f2 2c 3e 87 6a 2a be 4d 89 3d be
       0.14224653 0.16889277 -0.166422 -0.18509407
000180 fb c5 fb bd 77 a0 07 be 2c cb 22 be b3 dc 2a 3e
       -0.12293621 -0.13244806 -0.15897816 0.16685753
000190 3a 61 19 3c 03 bb c8 3d 62 12 ec bb c8 16 a8 3d
       0.0093615595 0.09801295 -0.00720434 0.0820747
0001a0 94 e8 ea bd ec bb fe bd 07 bb 15 ba 83 01 a4 bc
       -0.11470142 -0.12438187 -0.0005711768 -0.020020252
0001b0 21 37 b5 3d 7f b2 0e 3e 3b bc 15 3c ef fc 71 3d
       0.08848406 0.13935278 0.009139116 0.059079107
0001c0 f8 b4 d8 bd 92 c7 8f 3d 38 37 16 be b5 53 c7 3d
       -0.10581392 0.07020487 -0.14669502 0.09732763
0001d0 d3 96 08 3d 0b 7f 02 3d 67 45 01 3c 36 f7 ca bd
       0.033346962 0.03185944 0.007890082 -0.09910433
0001e0 9c 4d 4f bd 68 e5 ec bd 42 66 b4 3d 5f 84 79 bc
       -0.050611123 -0.11567193 0.08808567 -0.015229314
0001f0 d5 39 4d 3e 93 60 6d 3d 59 ad 9a 3d a9 19 48 3e
       0.20041592 0.05795343 0.07552595 0.19541039
000200 92 ed f3 3d e7 72 4f bd 19 d0 28 bd d6 ab fa bc
       0.11910547 -0.05064669 -0.041214082 -0.030599516
000210 05 2f 0b 3e eb d5 3f 3e 04 47 82 bb c2 8f 1b be
       0.13592155 0.18733947 -0.003975751 -0.15191558
000220 43 e9 0d bd 27 f6 67 bd 8d d2 ce 3d 65 34 ff 3b
       -0.034646284 -0.056631234 0.10098753 0.0077882283
000230 2c 3b f2 3d 04 55 33 3d cf b8 8a bd 49 7a a3 3b
       0.118276924 0.04378225 -0.06773531 0.0049889428
000240 8d 91 83 bd 0c a2 e2 3d 4a 6f 36 bd 7a b3 f1 bd
       -0.06424246 0.11066064 -0.044539727 -0.118018106
000250 2f 78 fb 3c d3 31 b8 bd 77 d8 e0 3d 9b 3d 15 3e
       0.030696956 -0.08993878 0.109787874 0.14574282
000260 0c 6e 08 3e 5b 9a 02 3e 2b 6b a7 3d 8c 78 9e bd
       0.1332323 0.12754194 0.081747375 -0.07737836
000270 8e 2e d2 bc 94 4d 1e bd e8 d8 11 be 70 e7 e0 3c
       -0.025656965 -0.038648203 -0.142429 0.027454108
000280 ac 17 26 3e fd ba e7 bd e6 76 40 bd fe 82 c7 3c
       0.16219968 -0.11314962 -0.04698839 0.024354454
000290 73 61 9f 3d 7b 98 13 bd 77 1d bb 3d f5 3c 1f bd
       0.07782259 -0.03603409 0.09136479 -0.038876493
0002a0 39 aa 1a be 58 e0 08 be 0b 35 3f 3e f1 cf 33 be
       -0.15103997 -0.1336683 0.18672578 -0.17559792
0002b0 27 ec 56 bd ba 39 0a 3e 3f ca 01 be 41 74 ad 3b
       -0.052471306 0.13498583 -0.12674807 0.0052933996
0002c0 b9 e3 29 3e 71 a0 86 3c ab 8b b5 bd 11 f2 8c 3d
       0.16590776 0.016433926 -0.0886453 0.06882108
0002d0 8f 7c d2 3c 76 6f 3e 3e 72 cf bd 3c 6b 69 e2 bc
       0.02569416 0.18597206 0.023170207 -0.027638158
0002e0 23 e0 0f bc d6 f9 b8 bc 5d f0 94 bd 6c 9c 06 be
       -0.008781466 -0.022580069 -0.07272408 -0.13145608
0002f0 98 ec c0 3b ad 8e 15 3e 50 df 7d 3d 6b 3e 01 3e
       0.005887579 0.14605208 0.061980546 0.12621467
000300 8b 68 0f be 48 cf e1 bd e3 a4 98 bc 55 71 31 be
       -0.14004724 -0.11025864 -0.018633312 -0.17328389
000310 61 8e 9f bd 83 a1 2a 3d 56 c5 b0 3c 62 0f dc bd
       -0.077908285 0.041657936 0.021578472 -0.107451215
000320 ca f6 04 bd ac 65 31 3e 56 46 8e 3d 37 7c 3c 3b
       -0.03246192 0.17323941 0.06947009 0.0028760561
000330 20 f7 02 3e 52 5d e4 3d 5e 50 54 be 6e 9c 05 3e
       0.12789583 0.11150612 -0.20733783 0.13047954
000340 b7 21 44 be 97 8d 62 3c 6e ff 13 3d a0 89 05 be
       -0.19153486 0.013827703 0.03613227 -0.13040781
000350 06 cb 13 be a4 4e 09 3e 85 02 41 be da 9f 9e 3c
       -0.14432916 0.13408905 -0.18848617 0.019363333
000360 07 36 93 3d 9f 81 b0 bc bc c1 db 3d 7b 5f 04 be
       0.07188039 -0.021546183 0.10730311 -0.12927048
000370 07 f0 19 bd 68 b4 f5 bd d7 dd 24 3c 08 b6 ca 3b
       -0.037582424 -0.119973004 0.010062656 0.0061862506
000380 26 ff 01 be d5 a2 c2 3d 2d 22 e4 3d 2b 82 8f 3d
       -0.12694988 0.09503714 0.11139331 0.070072494
000390 e0 7f 37 bc 9e 3e 8d bc 54 e9 ca bd 2a 44 c6 bc
       -0.011199921 -0.017241772 -0.09907785 -0.024202425
0003a0 9e e4 e1 bd 4e e8 1c 3e 5d 2b b9 bd 6e 15 b6 bb
       -0.110299334 0.15322992 -0.09041474 -0.005556754
0003b0 d9 e6 07 3d 84 44 83 bb b9 99 0b be 26 4d 07 3e
       0.033179138 -0.0040059704 -0.1363286 0.13213024
0003c0 06 09 80 3d 5a 77 29 bd d3 5e 8b 3d eb 92 ba bd
       0.06251721 -0.04137359 0.06805196 -0.09110054
0003d0 89 ff b5 bc 09 f7 57 be 58 80 46 3d ee 8d 96 3d
       -0.022216575 -0.2109033 0.048462242 0.0735129
0003e0 98 0b 10 bb 9f 4e 7d 3d 4a df 6c bc 96 1d 51 bd
       -0.0021979567 0.061842557 -0.014457533 -0.051053606
0003f0 fb 09 80 bd 10 bd bd 3d ca 57 eb 3d e4 27 0a 3e
       -0.062519036 0.092645764 0.11491354 0.1349178

transformer.blocks.0.fw.0.bias f4 [64]
000000 4d 64 ef 3d bc c5 20 be e2 5c 0d 3d 52 b8 ea 3d
       0.11689053 -0.1570043 0.034512408 0.114609376
000010 0a dc 02 3e e4 c6 0f be 31 f9 97 bd 48 d6 0d 3d
       0.1277925 -0.14040715 -0.07420576 0.034628183
000020 e2 a5 31 bd c0 d3 82 3d 67 fd ee bd f4 0b aa bd
       -0.04337109 0.06388044 -0.116694264 -0.08303061
000030 27 52 c0 bd 03 2a d1 bd 78 7d f2 3d b4 bc 13 3d
       -0.09390669 -0.10213091 0.118403375 0.036068633
000040 2d f4 13 bd 24 0c 4c 3b 9d a2 55 3d 24 d5 c9 3d
       -0.036121536 0.0031135166 0.052157033 0.098551065
000050 90 11 85 bc 54 15 fe bd 03 94 f7 3d 0a d7 0e 3e
       -0.016243726 -0.12406412 0.12088778 0.13949218
000060 eb ab c4 3d cf 33 7d bc 49 bd cf bd 88 e4 22 bd
       0.09603103 -0.015454247 -0.10143525 -0.039768726
000070 9a 6d e4 bd d8 fa 0d bd 6f 68 92 bd 5c 73 ff bd
       -0.11153717 -0.03466305 -0.071488254 -0.12473175
000080 fc 03 c8 3d f3 55 e6 3d ef 9f 10 3d 5b cf 29 3e
       0.09766385 0.11246862 0.035308775 0.16583006
000090 27 8c d3 3d 79 5a 13 3e 97 e0 25 3e 59 cb 25 3e
       0.10329466 0.14389981 0.16198955 0.16190852
0000a0 29 d3 c5 bd 6a bd ef bd 19 df 8d bd ff df 77 bb
       -0.09659416 -0.1170605 -0.06927318 -0.003782272
0000b0 e8 9d b2 bd 3a de 39 3d 01 b1 42 bd e3 48 15 be
       -0.087215245 0.045377947 -0.047532085 -0.14578585
0000c0 b0 78 40 3d 91 06 59 bd e1 e9 0d 3d 47 3b d1 3d
       0.046990097 -0.052984778 0.034646872 0.102163844
0000d0 aa 87 af 3c 6f 4d bb 3d b6 b5 67 bd c9 79 91 3d
       0.021426994 0.09145629 -0.056569777 0.07103307
0000e0 57 73 dd bc 92 3c 01 be bb e0 29 3d b1 0f e6 bd
       -0.027032537 -0.12620762 0.041474085 -0.11233462
0000f0 80 9b 07 3e c6 da 97 bc d1 a8 01 3d 33 b3 55 bd
       0.13242912 -0.018536936 0.031655136 -0.05217285

transformer.blocks.0.fw.2.weight f4 [32, 64]
000000 f5 71 da 3b 77 50 3d bd 64 dd 97 3c b5 ec 8b 3c
       0.006666417 -0.046219315 0.018538184 0.017080644
000010 8f 7d e2 bb 1c 2c 7f 3d 92 a3 02 bd 37 c0 ee bd
       -0.0069119404 0.062297925 -0.031894274 -0.11657756
000020 4b ef a7 3d dc 69 2d 3e 32 8f 0b be bb ce 26 3d
       0.081999384 0.16934913 -0.13628843 0.040724497
000030 dd 36 01 be 42 45 31 3e bb 72 9f bd b3 8b 51 bd
       -0.12618585 0.17311576 -0.07785555 -0.05115862
000040 dc 32 e4 3b 71 b1 92 bb 9d 2e a9 bd 81 01 98 bd
       0.0069640707 -0.004476719 -0.08260844 -0.07422162
000050 95 f6 28 bd 22 a8 0f be 3f 4c 42 3b 0f 63 41 3d
       -0.041250784 -0.14028981 0.0029647497 0.04721361
000060 51 ad 1d be 09 3b 28 be 92 8a c3 3d 47 aa 32 bd
       -0.15398146 -0.1642877 0.095479146 -0.04361942
000070 59 c9 f2 bd e6 08 c9 bd 65 47 ff ba 2e 18 dc bc
       -0.1185481 -0.0981615 -0.0019476233 -0.026866999
000080 96 43 2c 3c 60 1d 71 bc 50 e7 98 3d c1 4a bb bc
       0.010514161 -0.014716476 0.07465994 -0.022862794
000090 1b 75 c0 bd 15 99 01 be 96 92 c1 3c 1e 3d 0f 3d
       -0.09397336 -0.12656052 0.023629468 0.034970395
0000a0 28 71 34 bd 6c b7 9e bd e3 8c 06 bd 00 f1 85 bd
       -0.044053227 -0.07749829 -0.032849204 -0.06540108
0000b0 76 1c 2b 3c db f7 44 3d d0 d8 ca 3d aa 03 31 3d
       0.010443797 0.048087936 0.09904635 0.043216385
0000c0 ee 1c 48 bd 9b d0 7f bd e8 f1 ab bd aa d8 5f bd
       -0.048855714 -0.0624548 -0.08395749 -0.054649986
0000d0 0c 28 e0 3d 4d 6a 1c 3c d6 ef df bd fd 3e 0c bd
       0.10945138 0.009546828 -0.10934417 -0.034239758
0000e0 c2 f5 ce 3d d6 f1 c8 bc db 0e d2 bd 73 c8 1f 3d
       0.10105468 -0.024529379 -0.1025674 0.039009523
0000f0 74 89 11 3e 91 28 bb 3d a1 09 4c 3c 50 72 3d 3d
       0.1421259 0.09138597 0.012453468 0.046251595
000100 9b 71 cd bd 43 b7 92 bd 04 f3 bc bd 5d a3 f5 bc
       -0.10031434 -0.07163861 -0.09226039 -0.029985124
000110 1c 24 cc bd 8c 0e f4 bc 69 79 f9 bc 44 dd 88 3d
       -0.09967825 -0.029792093 -0.0304534 0.06682828
000120 32 21 be 3d 6e 06 5c 3c 64 6b 35 3b 2e dd 91 3d
       0.09283675 0.013429267 0.0027682418 0.07122265
000130 28 49 af 3d 94 ec cc bd 9c 8f 0c bd 80 db 43 bd
       0.08558875 -0.10006061 -0.034316644 -0.047816753
000140 17 9e 09 bd 28 dc 13 bd ab 9e 6f bd 56 22 a5 3d
       -0.03359803 -0.03609863 -0.058500927 0.0806319
000150 64 ac a4 bd 37 7c b5 3d 59 c8 e5 bd a5 14 cc bc
       -0.080406934 0.08861583 -0.11219854 -0.024912188
000160 12 8b dc 3b a8 4a 12 3d 8b 1c 80 3d f3 d8 ed bd
       0.0067304457 0.03571573 0.06255444 -0.116136454
000170 64 23 14 3d 19 c5 8d 3d f6 36 a4 3d 14 1f 95 3d
       0.036166564 0.06922359 0.080182955 0.07281318
000180 91 26 6b bd 64 fb 9e bc ff ac 80 bd 8b 0b f5 bc
       -0.057409827 -0.019406982 -0.062829964 -0.02991273
000190 e6 9b 10 bc 0b aa d2 bc 57 89 99 3d 1d c3 bc bd
       -0.008826232 -0.025715848 0.074968986 -0.092169024
0001a0 1d a8 8f bc 24 55 79 bc 92 d3 8c bd 12 d8 c4 bd
       -0.017536217 -0.015218053 -0.06876291 -0.09611525
0001b0 a7 81 72 3d 57 87 c4 3c cc b4 f7 bd 02 a5 3d 3d
       0.059205677 0.023990316 -0.12095031 0.04629994
0001c0 df 78 8e 3d e2 f1 07 bd a9 46 4c bd 54 cf 6b 3d
       0.06956648 -0.03318966 -0.049872074 0.05757077
0001d0 4b 60 d3 bd d9 62 b6 3d a9 97 9a bd 3c 05 b4 bd
       -0.10321101 0.089055724 -0.07548458 -0.08790061
0001e0 2e 86 95 3d e8 ce 8a bd a6 db d0 3d 7f 83 a3 bd
       0.07300983 -0.067777455 0.101981446 -0.07984065
0001f0 d5 5e bd 3d b9 22 aa 3d e3 49 d4 bc cf 2b e9 3b
       0.092466034 0.08307404 -0.025914138 0.007115818
000200 9e 8b 44 3d db b7 1e bd 60 fb 06 3d c3 4b 05 be
       0.04798471 -0.038749557 0.032954574 -0.13017182
000210 05 f5 72 3b ee 30 18 bc 8e da 23 3d 9f 8e aa 3d
       0.0037072313 -0.0092890095 0.040003352 0.08327984
000220 b7 9c a5 bd 90 45 50 3b 73 17 ec bd fe 43 d9 3c
       -0.080865316 0.0031779744 -0.1152791 0.026521679
000230 16 21 e7 bc d5 5e 81 bd 39 5f 03 be b8 44 a6 bc
       -0.028214019 -0.06316916 -0.12829293 -0.02029644
000240 98 e5 b8 3d d6 73 57 3d af 7b 9e 3b 9d 5f d2 3d
       0.090281665 0.052600704 0.0048365216 0.10272143
000250 25 c9 8d ba f6 4c f7 3d 59 17 21 3b c3 fc ae bd
       -0.0010817392 0.12075226 0.0024580567 -0.08544304
000260 75 f1 b3 bd df e1 d1 bd a9 0f d5 bd 24 6b e9 bc
       -0.08786289 -0.102481596 -0.104033776 -0.028493471
000270 ff 63 88 bd 60 05 00 3e 26 c0 c2 3d cb 83 d7 3c
       -0.06659698 0.1250205 0.09509306 0.026307961
000280 a0 8d 84 bd c3 24 34 bd 72 06 f6 3d 65 fa 06 bc
       -0.06472325 -0.04398037 0.12012948 -0.00823841
000290 d6 9d 38 3d 21 64 94 3d fc a9 b1 bc b9 fe 61 bd
       0.0450724 0.072456606 -0.0216875 -0.055174563
0002a0 9d 3c e7 bc 1e d2 45 3c 56 a8 cb 3d 62 84 3f 3d
       -0.028227145 0.012074022 0.09944217 0.04675711
0002b0 12 e9 3f 3d a4 a3 65 bd 0d d3 a2 bd 8f b5 13 3c
       0.046853133 -0.056064263 -0.07950411 0.009015455
0002c0 63 4d ae bd 44 f5 b4 bd bd 83 27 bc 67 91 32 3d
       -0.08510854 -0.08835843 -0.01022428 0.043595698
0002d0 79 1b 03 3e ab 21 b8 bb 79 ca ab 3d 67 81 d6 3c
       0.12803449 -0.005619248 0.08388228 0.02618475
0002e0 66 fe d8 3d 94 00 a7 3d b8 7a 6f 3a 83 8c f9 3d
       0.10595398 0.08154407 0.0009135413 0.121850036
0002f0 7f 6d 16 bd 77 06 3f bd 96 43 d1 bd d1 91 f6 bc
       -0.036725517 -0.046637025 -0.10217969 -0.030098828
000300 e4 84 c8 bc 88 6b ea bd f4 89 a5 3d bb 38 10 be
       -0.02447743 -0.11446291 0.08082953 -0.14084141
000310 2d 63 5c 3c b5 a4 44 bd 7f f3 1c 3d a2 69 24 3d
       0.01345138 -0.04800864 0.038318153 0.0401398
000320 77 fb ff bd 6f 2a 2b bd dc 63 8e bc 17 02 f2 bd
       -0.12499135 -0.041788515 -0.017381601 -0.11816805
000330 32 ac 68 3d bd 55 e7 3d 49 88 c1 bd a6 7e 2a be
       0.056804843 0.1129565 -0.094498225 -0.16649875
000340 73 b7 40 bd 21 52 c3 bd 93 79 7d bd 1b e6 03 3e
       -0.04704995 -0.09537149 -0.06188352 0.12880747
000350 ae 97 b5 bd 19 1a 48 bd bc 9d b2 bd 05 0b bd 3d
       -0.08866821 -0.048853014 -0.08721492 0.092306174
000360 1d ee e4 bd 02 7e 0c bd 77 19 c7 3d 05 14 c5 bd
       -0.11178229 -0.034299858 0.09721654 -0.09622959
000370 15 5f ff ba 9c 17 0f 3d 08 88 a3 3d 4b 1c b3 bb
       -0.0019483293 0.034934625 0.0798493 -0.0054660193
000380 fd b0 d2 bc b1 96 a0 3d 6d 81 92 3d 7c 85 d3 3d
       -0.02571916 0.07841242 0.07153592 0.103281945
000390 a5 4e 13 bd 92 1a 48 bc 58 a4 cc 3d 26 68 d7 bc
       -0.035963673 -0.012213366 0.099922836 -0.026294779
0003a0 8b 9a d7 bd e5 51 07 3e 3b 82 3b 3d dc ba 13 bd
       -0.105275236 0.13214834 0.045778494 -0.036066875
0003b0 3e b8 e0 3c 13 88 47 bd d5 8c 71 3d 0e 4e f5 bd
       0.027431604 -0.048713755 0.0589722 -0.119777784
0003c0 f6 0f 89 bd b2 b9 c6 3d bd bd 2a 3b fd 8b ad bd
       -0.066924974 0.09703387 0.0026053034 -0.08473966
0003d0 e9 7d e9 bc 67 36 75 3a a8 d1 0b bd a0 a4 9c bd
       -0.028502421 0.0009354115 -0.03413549 -0.07648587
0003e0 ee 13 8f bd 76 6f dc bd 25 95 75 3d fe 60 7e 3d
       -0.06986223 -0.10763447 0.05995669 0.062104218
0003f0 30 e6 39 3d 54 27 ac 3d 34 ed b9 3b c1 0d 0f bc
       0.04538554 0.08405939 0.005674029 -0.0087313065

transformer.blocks.0.fw.2.bias f4 [32]
000000 67 d4 ca bd fa 6c e5 bd 2e d4 10 3d 6c a6 66 bd
       -0.09903794 -0.11202426 0.0353586 -0.056311056
000010 98 40 17 bd d5 c6 94 3d ef 45 bc bd 9b db ce 3c
       -0.036926836 0.07264487 -0.09193026 0.0252512
000020 65 fe 88 bd 96 4e 79 3c 2e 08 d6 3d fb bb 9c 3d
       -0.06689147 0.01521649 0.10450779 0.07653042
000030 81 e3 3c bd 14 05 c8 bd 4d bb e1 bd 56 80 05 be
       -0.046115402 -0.097665936 -0.11022053 -0.13037238
000040 3c 27 bb 3d 1f 10 3f bd 01 87 c6 bc 88 fa 30 bd
       0.09138343 -0.046646234 -0.024234297 -0.043207675
000050 49 d8 a9 bd a5 ef 81 bd 01 06 fe 3b 67 a9 78 bd
       -0.08293206 -0.06344537 0.0077521806 -0.06070843
000060 71 69 0e bd 52 91 c2 3d 32 a0 2d bd 3d 90 81 bb
       -0.034768526 0.09500374 -0.042389102 -0.003953962
000070 ac da e5 3d 86 19 1a 3d aa c5 07 bd 86 43 8e 3d
       0.11223349 0.037621997 -0.03314749 0.06946473

transformer.blocks.0.norm1.weight f4 [32]
000000 9a 1f 81 3f 47 98 82 3f 6a 33 85 3f fc a7 7e 3f
       1.0087769 1.0202721 1.0406315 0.99475074
000010 39 1d 78 3f f3 97 83 3f 6b 54 77 3f 5c c9 78 3f
       0.9691959 1.0280746 0.96613187 0.9718225
000020 58 76 7f 3f 0f 12 80 3f 93 7f 7c 3f b8 8d 78 3f
       0.99789953 1.0005511 0.9863216 0.97091246
000030 57 b4 84 3f df 2b 71 3f 30 ae 83 3f 13 d4 81 3f
       1.0367535 0.94207567 1.0287533 1.0142845
000040 7f fe 83 3f 24 9a 7b 3f 99 12 84 3f 34 4c 80 3f
       1.0312041 0.98282075 1.0318176 1.0023255
000050 1f ce 82 3f de b6 7f 3f f0 0f 81 3f 7f f2 75 3f
       1.0219153 0.9988841 1.0082989 0.96073145
000060 3f 90 84 3f 51 b3 82 3f 71 d7 80 3f 54 c0 7d 3f
       1.035652 1.0210973 1.0065747 0.99121594
000070 8d 7f 7e 3f 4e 29 88 3f db 67 7b 3f 71 00 7c 3f
       0.9941338 1.0637605 0.98205346 0.98438174
