experiments/transformer/models/seq_reverse/models/lightning_logs/version_0/checkpoints/epoch=2-step=1170.ckpt (torch, 179235 bytes, 22 tensors)

input_net.1.weight f4 [32, 10]
-0.11177344 0.029129835 -0.19562504 -0.11710325 0.1485419 0.04909674 0.006341608 0.15000099
0.14109522 0.1622262 0.19859871 -0.17268726 -0.17524238 -0.06552507 -0.082666576 -0.14024542
0.15186116 0.14877784 0.11711016 0.18907142 0.10907189 -0.053998187 -0.071455576 -0.021458194
-0.040403564 -0.23145464 -0.108356334 0.03460959 0.064123325 -0.15457244 -0.01857146 0.09398003
-0.001970164 0.008641711 0.117979944 -0.016957974 -0.30463257 0.01095306 0.06602363 -0.16944973
-0.20433015 0.058907032 -0.18052986 -0.31885844 0.080049515 -0.13937134 -0.17481783 -0.20992167
0.21358591 0.021765318 -0.27073273 0.1303101 -0.24859819 0.17700583 0.049302317 -0.15646368
-0.12275488 0.21758938 -0.028612072 0.17810863 0.25408462 0.30828777 -0.29275718 0.14898491
-0.10175098 -0.12649377 0.1781206 0.17231356 -0.08670042 0.30886477 0.118612304 -0.24156883
0.12953511 0.37033987 -0.3262607 0.3590652 -0.23381595 0.2508807 0.09496796 -0.26719365
0.09816653 -0.22856691 0.22680739 -0.27821508 -0.056899823 0.26500732 0.08947529 0.2616775
0.01289027 -0.118701525 0.1393368 -0.32777178 0.087641954 -0.08955876 -0.015651127 -0.30802464
0.38440943 -0.18531781 -0.13686937 0.14483076 -0.34236693 0.23478326 0.16019547 0.29549408
0.0053492505 -0.30485165 -0.06878875 -0.13850126 -0.33969718 -0.047752682 -0.20761049 0.15831149
0.15298109 0.04253187 0.16966465 -0.0849832 -0.31407568 0.35002065 -0.11555392 -0.32564136
0.3436549 -0.03803414 -0.29875603 0.044889126 0.17975293 0.27578536 -0.16794679 0.075875334
0.4841438 0.22181733 0.20765652 0.053858716 -0.27263668 -0.37707976 -0.1663528 0.06457932
0.20696464 -0.06902253 0.12786488 -0.3077702 0.055413052 0.31177685 0.09667558 0.037200235
-0.3143769 -0.05921844 -0.33181825 -0.12570265 0.33713934 -0.38877982 0.016412146 0.22385947
0.11434778 -0.23269948 -0.045011617 -0.12615626 -0.029531147 -0.090419136 -0.25763386 -0.22575034
0.21505451 -0.20031808 -0.10693772 0.13064755 0.098059624 -0.2955754 0.2383078 0.4071017
0.052242644 0.05684959 -0.33741254 -0.21727282 0.32415327 0.33835593 0.014646553 0.27854183
0.21959358 -0.0068320245 0.16649108 -0.10185457 0.0201313 0.09135858 -0.2020273 0.16708034
-0.39738506 -0.42026913 0.012874549 0.20650998 0.39448056 -0.04995505 -0.3795344 0.14452797
-0.009019456 0.18687974 -0.03427879 -0.07150091 0.07296878 -0.2578003 -0.22665565 0.040849604
-0.163236 -0.32557228 0.13668443 0.094185196 -0.47490516 -0.04778172 0.26458806 -0.35594177
0.02391603 -0.009159948 0.08912491 0.36890468 -0.0889522 0.29395983 0.19027206 -0.0008496459
0.18898235 -0.108457334 0.20811877 -0.3222401 0.2742647 -0.20907097 0.35935727 -0.23291704
-0.33493873 -0.4001192 0.25986278 0.15061693 -0.22620097 -0.23526168 0.08613397 -0.121524915
-0.29506528 0.4102518 -0.38983348 0.3410089 -0.28531533 -0.1281461 -0.24061045 0.1651943
0.29946944 0.1741157 0.20780276 0.18812202 0.12761982 0.30353442 -0.2542698 -0.07140709
-0.36962414 0.19766645 0.39636683 -0.021829901 0.22653487 -0.26681682 0.04219449 0.16288061
00000000: 79e9 e4bd b1a1 ee3c ee51 48be d4d3 efbd
00000010: 5e1b 183e aa19 493d 43cd cf3b dc99 193e
00000020: 447b 103e a01e 263e 765d 4b3e eed4 30be
00000030: bd72 33be 0232 86bd 184d a9bd 7f9c 0fbe
00000040: 7e81 1b3e 3859 183e 74d7 ef3d f09b 413e
00000050: 1561 df3d 342d 5dbd 4d57 92bd 18c9 afbc
00000060: 357e 25bd 7202 6dbe ede9 ddbd c9c2 0d3d
00000070: 1753 833d 3d48 1ebe 2d23 98bc 9a78 c03d
00000080: de1d 01bb f795 0d3c 789f f13d 73eb 8abc
00000090: cdf8 9bbe 7774 333c 6637 873d 3b84 2dbe
000000a0: ec3b 51be 8048 713d d2dc 38be 6a41 a3be
000000b0: 00f1 a33d 5cb7 0ebe 7203 33be b5f5 56be
000000c0: 44b6 5a3e 2e4d b23c 7b9d 8abe 0370 053e
000000d0: 8690 7ebe 0441 353e 3af1 493d 0438 20be
000000e0: e966 fbbd c0cf 5e3e dd63 eabc 1c62 363e
000000f0: 6117 823e e5d7 9d3e 45e4 95be 808f 183e
00000100: d162 d0bd 9587 01be 3f65 363e f772 303e
00000110: fd8f b1bd 8623 9e3e 02eb f23d d25d 77be
00000120: daa4 043e 309d bd3e a40b a7be 65d7 b73e
00000130: 736d 6fbe 6f73 803e 907e c23d 9bcd 88be
00000140: 890b c93d 720d 6abe 3240 683e 3572 8ebe
00000150: ca0f 69bd 0aaf 873e d23e b73d 98fa 853e
00000160: b631 533c c919 f3bd 4eae 0e3e b4d1 a7be
00000170: a07d b33d 956a b7bd cb36 80bc 68b5 9dbe
00000180: 50d1 c43e f4c3 3dbe 7c27 0cbe 844e 143e
00000190: b84a afbe 066b 703e 480a 243e 004b 973e
000001a0: c448 af3b 8415 9cbe 1ee1 8cbd 46d3 0dbe
000001b0: caec adbe 5198 43bd d897 54be 681c 223e
000001c0: 13a7 1c3e e635 2e3d 92bc 2d3e ac0b aebd
000001d0: 87ce a0be e835 b33e 89a7 ecbd 77ba a6be
000001e0: 89f3 af3e b0c9 1bbd 8df6 98be a9dd 373d
000001f0: 2711 383e bd33 8d3e 3efa 2bbe 8764 9b3d
00000200: b2e1 f73e 1524 633e e9a3 543e f59a 5c3d
00000210: 0997 8bbe 9910 c1be 6358 2abe 2a42 843d
00000220: 8aee 533e af5b 8dbd 03ef 023e 0e94 9dbe
00000230: ccf8 623d 37a1 9f3e d9fd c53d 465f 183d
00000240: 02f6 a0be 098f 72bd 15e4 a9be 32b8 00be
00000250: 879d ac3e 260e c7be c472 863c 6b3b 653e
00000260: 2b2f ea3d c648 6ebe 1a5e 38bd 1b2f 01be
00000270: 4eeb f1bc ab2d b9bd 96e8 83be 192b 67be
00000280: 4037 5c3e 2f20 4dbe 2a02 dbbd 79c8 053e
00000290: 7cd3 c83d a955 97be f606 743e a26f d03e
000002a0: 62fc 553d 1edb 683d 56c1 acbe c47c 5ebe
000002b0: 6bf7 a53e fd3c ad3e 19f8 6f3c 099d 8e3e
000002c0: 24dd 603e 2ddf dfbb a37c 2a3e 2199 d0bd
000002d0: 65ea a43c 351a bb3d 3fe0 4ebe 1c17 2b3e
000002e0: 0e76 cbbe 842d d7be c6ef 523c 5a77 533e
000002f0: 5bf9 c93e ab9d 4cbd 5552 c2be 24ff 133e
00000300: 57c6 13bc 675d 3f3e eb67 0cbd 126f 92bd
00000310: a870 953d 67fe 83be 6b18 68be ea51 273d
00000320: 5727 27be 69b1 a6be 01f7 0b3e 2be4 c03d
00000330: c526 f3be c4b6 43bd 1678 873e 003e b6be
00000340: 8deb c33c 9b13 16bc 1f87 b63d 13e1 bc3e
00000350: 922c b6bd e781 963e aed6 423e c5ba 5eba
00000360: 9784 413e e11e debd 161d 553e a8fc a4be
00000370: 6c6c 8c3e b316 56be adfd b73e ce81 6ebe
00000380: 177d abbe 6cdc ccbe bc0c 853e 533b 1a3e
00000390: 3aa1 67be 70e8 70be 0267 b03d 0ee2 f8bd
000003a0: cc12 97be 860c d23e 4198 c7be b898 ae3e
000003b0: da14 92be bb38 03be 9662 76be b228 293e
000003c0: 0f54 993e 634b 323e 3fca 543e 0fa3 403e
000003d0: c5ae 023e dd68 9b3e a72f 82be e13d 92bd
000003e0: 603f bdbe 1369 4a3e 98f0 ca3e 9fd4 b2bc
000003f0: c2f8 673e 379c 88be 21d4 2c3d 2dca 263e

input_net.1.bias f4 [32]
-0.29425746 -0.10072202 0.29831156 0.3060304 -0.27278367 -0.27938592 0.013958485 0.31451154
0.11321968 -0.24512509 0.24152406 -0.2587341 -0.023858456 0.20417844 -0.075166985 -0.009445816
0.22595121 -0.02690868 -0.17466544 0.06701241 0.23040567 0.050777722 0.007599171 -0.09122339
-0.021662593 -0.20715952 -0.22769709 -0.0018662027 0.20294306 -0.0881066 0.18454102 0.09747965
00000000: eaa8 96be 5947 cebd 4bbc 983e 04b0 9c3e
00000010: 4daa 8bbe ac0b 8fbe 21b2 643c a807 a13e
00000020: b8df e73d 1202 7bbe 1552 773e cc78 84be
00000030: cf72 c3bc 2714 513e 26f1 99bd a0c2 1abc
00000040: c15f 673e 986f dcbc 7fdb 32be cd3d 893d
00000050: 77ef 6b3e 4dfc 4f3d 7702 f93b 54d3 babd
00000060: c075 b1bc a021 54be 6d29 69be 5f9b f4ba
00000070: 4ed0 4f3e 3c71 b4bd 52f8 3c3e 69a3 c73d

transformer.pe.pe f4 [1, 500, 32]
0.0 1.0 0.0 1.0 0.0 1.0 0.0 1.0
0.0 1.0 0.0 1.0 0.0 1.0 0.0 1.0
0.0 1.0 0.0 1.0 0.0 1.0 0.0 1.0
0.0 1.0 0.0 1.0 0.0 1.0 0.0 1.0
0.84147096 0.54030234 0.53316844 0.8460091 0.3109836 0.9504153 0.17689219 0.9842302
0.099833414 0.9950042 0.05620449 0.9984193 0.031617504 0.99950004 0.017781857 0.99984187
0.009999833 0.99995 0.0056233825 0.9999842 0.0031622713 0.999995 0.0017782785 0.99999845
0.0009999998 0.9999995 0.0005623411 0.9999998 0.00031622782 0.99999994 0.00017782794 1.0
0.9092974 -0.41614684 0.9021307 0.43146282 0.5911271 0.8065784 0.34820527 0.93741834
0.19866931 0.9800666 0.1122313 0.9936821 0.063203394 0.9980007 0.03555809 0.9993676
0.019998666 0.9998 0.011246587 0.99993676 0.006324511 0.99998003 0.0035565514 0.9999937
0.0019999985 0.99999803 0.0011246821 0.99999934 0.0006324556 0.9999998 0.00035565588 0.99999994
0.14112 -0.9899925 0.9932532 -0.11596616 0.8126489 0.58275366 0.5085361 0.86104065
0.2955202 0.9553365 0.16790329 0.9858035 0.094726086 0.99550337 0.053323083 0.9985773
0.0299955 0.99955004 0.016869437 0.9998577 0.009486687 0.999955 0.005334813 0.99998575
0.0029999954 0.9999955 0.0016870227 0.99999857 0.00094868336 0.9999996 0.0005334838 0.9999999
-0.7568025 -0.6536436 0.7784717 -0.6276797 0.95358074 0.30113748 0.652828 0.7575062
0.38941833 0.921061 0.22304447 0.9748083 0.12615407 0.99201065 0.07107121 0.9974712
0.039989334 0.9992001 0.022491753 0.99974704 0.01264877 0.99992 0.0071130577 0.9999747
0.003999989 0.999992 0.0022493629 0.9999975 0.0012649109 0.9999992 0.0007113117 0.99999976
-0.9589243 0.2836622 0.32393527 -0.94607925 0.99994653 -0.010342338 0.77652997 0.6300803
0.47942552 0.87758255 0.2774805 0.96073127 0.15745588 0.987526 0.08879686 0.99604976
0.049979165 0.99875027 0.028113356 0.99960476 0.015810724 0.999875 0.00889128 0.9999605
0.004999979 0.9999875 0.0028117022 0.99999607 0.0015811383 0.99999875 0.0008891396 0.9999996
-0.2794155 0.96017027 -0.23036751 -0.9731037 0.9471482 -0.3207964 0.8757405 0.48278204
0.5646424 0.8253356 0.3310393 0.943617 0.18860027 0.98205394 0.10649444 0.9943133
0.059964005 0.99820054 0.033734076 0.99943084 0.018972522 0.99982 0.0106694745 0.9999431
0.0059999637 0.999982 0.0033740408 0.99999434 0.0018973658 0.9999982 0.0010669674 0.99999946
0.6569866 0.75390226 -0.7137213 -0.7004298 0.8004216 -0.5994375 0.9473307 0.320257
0.6442176 0.7648422 0.38355154 0.9235195 0.2195561 0.9755999 0.12415834 0.9922624
0.06994285 0.997551 0.03935372 0.9992253 0.022134129 0.999755 0.012447635 0.9999225
0.006999942 0.9999755 0.0039363783 0.99999225 0.0022135929 0.99999756 0.0012447953 0.9999992
00000000: 0000 0000 0000 803f 0000 0000 0000 803f
00000010: 0000 0000 0000 803f 0000 0000 0000 803f
00000020: 0000 0000 0000 803f 0000 0000 0000 803f
00000030: 0000 0000 0000 803f 0000 0000 0000 803f
00000040: 0000 0000 0000 803f 0000 0000 0000 803f
00000050: 0000 0000 0000 803f 0000 0000 0000 803f
00000060: 0000 0000 0000 803f 0000 0000 0000 803f
00000070: 0000 0000 0000 803f 0000 0000 0000 803f
00000080: a46a 573f 4151 0a3f ba7d 083f 0d94 583f
00000090: 3e39 9f3e 6b4e 733f 3a23 353e 83f6 7b3f
000000a0: 7675 cc3d 98b8 7e3f ae36 663d 6898 7f3f
000000b0: 5b81 013d 3cdf 7f3f 42ab 913c a3f5 7f3f
000000c0: 57d6 233c b9fc 7f3f 5a44 b83b f7fe 7f3f
000000d0: 1c3e 4f3b acff 7f3f 2015 e93a e6ff 7f3f
000000e0: 6d12 833a f8ff 7f3f 136a 133a fdff 7f3f
000000f0: 61cb a539 ffff 7f3f 5377 3a39 0000 803f
00000100: b7c7 683f 3311 d5be 0af2 663f b2e8 dc3e
00000110: 1b54 173f ec7b 4e3f f647 b23e a6fa 6f3f
00000120: f86f 4b3e a5e5 7a3f 86d9 e53d f361 7e3f
00000130: c870 813d f97c 7f3f 5ca5 113d 8ed6 7f3f
00000140: 3ed4 a33c e5f2 7f3f 9b43 383c dbfb 7f3f
00000150: d83d cf3b b1fe 7f3f 0815 693b 96ff 7f3f
00000160: 6812 033b dfff 7f3f 126a 933a f5ff 7f3f
00000170: 60cb 253a fdff 7f3f 5377 ba39 ffff 7f3f
00000180: c381 103e 2670 7dbf d745 7e3f ab7f edbd
00000190: c209 503f 582f 153f 6c2f 023f 296d 5c3f
000001a0: 6c4e 973e ef90 743f d7ee 2b3e 9e5d 7c3f
000001b0: c0ff c13d 4fd9 7e3f 4e69 5a3d c3a2 7f3f
000001c0: 1fb9 f53c 83e2 7f3f c631 8a3c adf6 7f3f
000001d0: 0d6e 1b3c 0dfd 7f3f a8cf ae3b 11ff 7f3f
000001e0: 929b 443b b5ff 7f3f 171f dd3a e8ff 7f3f
000001f0: 10b1 783a f9ff 7f3f 7ed9 0b3a feff 7f3f
00000200: cfbd 41bf 3055 27bf ec49 473f 9eaf 20bf
00000210: de1d 743f b12e 9a3e bc1f 273f edeb 413f
00000220: d761 c73e a7ca 6b3f c565 643e 098d 793f
00000230: 882e 013e 69f4 7d3f c88d 913d 465a 7f3f
00000240: dbcb 233d 94cb 7f3f a040 b83c 6cef 7f3f
00000250: c93c 4f3c c2fa 7f3f a714 e93b 58fe 7f3f
00000260: 5712 833b 7aff 7f3f 0c6a 133b d6ff 7f3f
00000270: 5ecb a53a f3ff 7f3f 5277 3a3a fcff 7f3f
00000280: 107c 75bf 2c3c 913e d8da a53e 4032 72bf
00000290: 7ffc 7f3f e972 29bc abca 463f f14c 213f
000002a0: 4377 f53e 40a9 603f ed11 8e3e 7cf2 753f
000002b0: 1d3c 213e 81ce 7c3f 21db b53d 1efd 7e3f
000002c0: f4b6 4c3d 19ae 7f3f fb4d e63c 19e6 7f3f
000002d0: 7e85 813c cff7 7f3f bbac 113c 69fd 7f3f
000002e0: ddd6 a33b 2eff 7f3f 8944 383b beff 7f3f
000002f0: 333e cf3a ebff 7f3f 2615 693a f9ff 7f3f
00000300: 8c0f 8fbe b8cd 753f 76e5 6bbe 531d 79bf
00000310: 4e78 723f 6d3f a4be 8830 603f 352f f73e
00000320: 688c 103f 3249 533f fc7d a93e e290 713f
00000330: 6e20 413e e367 7b3f c219 da3d 518b 7e3f
00000340: d19c 753d 128a 7f3f be2c 0a3d b3da 7f3f
00000350: 436c 9b3c 34f4 7f3f 05cf 2e3c 45fc 7f3f
00000360: 589b c43b d2fe 7f3f 031f 5d3b a1ff 7f3f
00000370: 08b1 f83a e2ff 7f3f 7cd9 8b3a f7ff 7f3f
00000380: 4630 283f bdff 403f 70b6 36bf 5e4f 33bf
00000390: 6ee8 4c3f bc74 19bf 4484 723f baf8 a33e
000003a0: 72eb 243f b3cc 433f de60 c43e c66b 6c3f
000003b0: 50d3 603e eac0 793f ba46 fe3d e904 7e3f
000003c0: 323e 8f3d 815f 7f3f 5e31 213d 3bcd 7f3f
000003d0: a252 b53c f2ef 7f3f 2af1 4b3c ecfa 7f3f
000003e0: c55f e53b 65fe 7f3f bcfc 803b 7eff 7f3f
000003f0: ed11 113b d7ff 7f3f 6628 a33a f3ff 7f3f

transformer.blocks.0.mha.qkv_linear.weight f4 [96, 32]
-0.39669025 0.76295733 -0.032990098 0.2551429 0.23543671 0.21831837 -0.18039905 0.46430275
-0.1440484 0.50281435 -0.0651398 0.12916683 -0.027436556 0.19685832 -0.15036598 -0.12400775
-0.10221672 -0.03414549 -0.1277791 0.21693219 -0.24732204 -0.16261081 -0.24726547 -0.08200799
-0.1680829 0.06804024 -0.111811146 0.05707591 0.15046804 0.0055566877 0.28782588 0.20315968
0.41129237 -0.7998178 0.661921 -0.13088934 0.08953154 0.47206602 -0.15855949 0.44308934
-0.33987612 0.501697 -0.29890823 0.06833934 -0.3113351 -0.13654628 -0.19561878 -0.26499146
-0.013939214 0.045638002 -0.0032951548 -0.0002804062 0.22400558 -0.23927994 0.041260675 -0.19639501
-0.070981026 0.18733099 0.0002481021 -0.05942729 -0.21407099 -0.033056855 0.1476797 -0.19753493
0.56330705 0.44262525 -0.34731048 0.39905107 0.6554652 -0.5651873 0.42549443 0.32208666
-0.20707235 0.25614354 -0.21617542 0.010076596 0.042392474 -0.15340903 0.13309272 0.20524013
0.017753674 -0.16494082 0.011232117 0.20397663 -0.17010784 0.16702712 0.040431265 0.13621785
0.091626264 -0.08055261 -0.11426929 0.21735312 0.03713996 -0.10533713 0.16226065 0.22234794
0.7095798 -0.6727197 0.30437577 0.3121657 -0.6617893 -0.43158326 0.4370482 -0.6235943
0.11305136 -0.3141987 0.20113721 -0.20298141 0.28684652 -0.22280283 -0.084771685 -0.03005775
0.039079774 -0.20130092 0.31936836 -0.06654834 0.2823174 0.0158766 0.18807246 0.06327837
-0.24271618 -0.19106026 -0.06633197 0.023063513 0.06013253 0.041447084 -0.3645973 -0.1573133
-0.48522303 0.16344261 -0.47199383 0.4428212 0.56351465 -0.37591866 0.28940856 0.4015003
0.104110055 0.4619622 -0.15103582 0.019508576 -0.21862935 -0.0893447 0.0111769065 -0.044366788
0.16523011 0.007409399 -0.1200782 -0.10894063 -0.1492805 0.16188987 -0.20871516 -0.16749501
-0.29835108 0.06164141 -0.113579795 0.12887053 -0.04544574 -0.029678082 0.15601778 0.09914268
0.2923944 0.61783916 -0.63128096 0.6262702 -0.5236959 -0.26502073 -0.18383072 -0.32195485
0.09936525 -0.52152693 0.38992894 -0.056020558 0.3669476 -0.048825037 0.39551082 -0.03408592
0.19590722 -0.09575507 0.06583489 -0.046950143 -0.06316033 0.13197903 0.046205405 -0.21500285
-0.014935364 0.024310173 0.054478545 -0.10918145 -0.14506584 0.03403626 -0.038230103 -0.14589828
-0.6986618 -0.3555516 -0.616883 -0.58734924 0.24367675 0.42797375 -0.02209467 0.090343796
-0.21297981 -0.06638502 -0.13728921 -0.18194747 -0.013160508 -0.029225621 -0.010773132 -0.19456406
0.08475441 -0.07008786 0.0059250197 0.17199759 -0.35411176 -0.094918154 0.055916633 0.17144622
-0.14406404 -0.085928544 0.08148724 0.1255805 0.27309427 0.05309999 -0.17406984 -0.03010173
0.4574583 -0.6194835 0.40810937 -0.36224648 0.28231335 -0.43047416 0.44538936 0.60651696
-0.09713707 0.31599823 0.017361635 0.039707262 -0.18929148 -0.054606885 -0.21088354 -0.10573303
0.116528235 -0.13798223 0.014164831 -0.050142817 -0.20789117 0.0255428 -0.11056126 0.1663499
0.02578722 -0.1384041 -0.19817111 -0.010551219 0.09104575 0.20308277 0.10251589 -0.1622797
00000000: fc1a cbbe 2c51 433f a020 07bd 17a2 823e
00000010: 5216 713e da8e 5f3e 87ba 38be 17b9 ed3e
00000020: 6c81 13be 71b8 003f 0468 85bd 4f44 043e
00000030: a1c2 e0bc 3a95 493e 8af9 19be c6f7 fdbd
00000040: 0057 d1bd 24dc 0bbd 86d8 02be 7923 5e3e
00000050: fd41 7dbe 7383 26be 2933 7dbe cef3 a7bd
00000060: ec1d 2cbe ae58 8b3d 3efd e4bd 6ec8 693d
00000070: 4b14 1a3e e014 b63b ea5d 933e 1709 503e
00000080: ea94 d23e dcc0 4cbf a873 293f db07 06be
00000090: 505c b73d a3b2 f13e 6b5d 22be 9bdc e23e
000000a0: 3e04 aebe 376f 003f 800a 99be 7ff5 8b3d
000000b0: 5067 9fbe cad2 0bbe 4a50 48be f6ac 87be
000000c0: 4d61 64bc eaee 3a3d 86f3 57bb 7c03 93b9
000000d0: b861 653e cd05 75be f400 293d c61b 49be
000000e0: 805e 91bd b2d3 3f3e b313 8239 086a 73bd
000000f0: 6d35 5bbe a066 07bd 5939 173e 9946 4abe
00000100: e434 103f c79f e23e aed2 b1be 6c50 cc3e
00000110: 91cc 273f 1db0 10bf 68da d93e 8be8 a43e
00000120: c60a 54be 3f25 833e 175d 5dbe 4f18 253c
00000130: bba3 2d3d 4217 1dbe 7549 083e 782a 523e
00000140: 2770 913c 3fe6 28be ea06 383c 40df 503e
00000150: c030 2ebe 2809 2b3e 419b 253d b17c 0b3e
00000160: 8da6 bb3d c4f8 a4bd 0406 eabd d191 5e3e
00000170: 1220 183d feba d7bd a827 263e 2eaf 633e
00000180: 06a7 353f 5c37 2cbf 24d7 9b3e 2fd4 9f3e
00000190: 066b 29bf 7bf8 dcbe c8c4 df3e e0a3 1fbf
000001a0: 7987 e73d a7de a0be eaf6 4d3e 5cda 4fbe
000001b0: 8cdd 923e 6d26 64be c79c adbd ac3b f6bc
000001c0: 1d12 203d d421 4ebe 4084 a33e 7f4a 88bd
000001d0: e88b 903e a50f 823c 1196 403e 1798 813d
000001e0: 978a 78be 4da5 43be 0ed9 87bd b1ef bc3c
000001f0: 874d 763d 6bc4 293d 7fac babe bd16 21be
00000200: 276f f8be 805d 273e 2da9 f1be 76b9 e23e
00000210: 7f42 103f 6978 c0be 5c2d 943e 7391 cd3e
00000220: a737 d53d 4f86 ec3e 22a9 1abe 73d0 9f3c
00000230: 5fe0 5fbe 5bfa b6bd 581f 373c f3b9 35bd
00000240: 1532 293e 8bca f23b 8feb f5bd 441c dfbd
00000250: fddc 18be 75c6 253e 6db9 55be d083 2bbe
00000260: 79c1 98be b47b 7c3d 869c e8bd a3f6 033e
00000270: 5025 3abd 731f f3bc 20c3 1f3e 510b cb3d
00000280: b8b4 953e b52a 1e3f a19b 21bf 3e53 203f
00000290: ef10 06bf ccb0 87be 1f3e 3cbe 44d7 a4be
000002a0: 0280 cb3d ca82 05bf c4a4 c73e d075 65bd
000002b0: 8ee0 bb3e c3fc 47bd 6580 ca3e ad9d 0bbd
000002c0: e79b 483e 3c1b c4bd 71d4 863d cb4e 40bd
000002d0: 345a 81bd 8325 073e e141 3d3d b529 5cbe
000002e0: 75b3 74bc 2126 c73c e524 5f3d 869a dfbd
000002f0: 248c 14be 9b69 0b3d 2b97 1cbd 5c66 15be
00000300: 80db 32bf dc0a b6be 0bec 1dbf 855c 16bf
00000310: 6686 793e 601f db3e e2ff b4bc 2b06 b93d
00000320: 6117 5abe dff4 87bd 8b95 0cbe 7050 3abe
00000330: 2c9f 57bc 926a efbc ca81 30bc cd3b 47be
00000340: b893 ad3d 398a 8fbd ab26 c23b 2320 303e
00000350: 234e b5be 7364 c2bd d708 653d 998f 2f3e
00000360: 8685 13be 4efb afbd c8e2 a63d 2d98 003e
00000370: 03d3 8b3e 607f 593d 5d3f 32be e797 f6bc
00000380: f937 ea3e 7896 1ebf b6f3 d03e 5f78 b9be
00000390: 608b 903e 1c67 dcbe 130a e43e b244 1b3f
000003a0: cdef c6bd 85ca a13e fd39 8e3c 15a4 223d
000003b0: a0d5 41be 78ab 5fbd dbf1 57be 8f8a d8bd
000003c0: 5ba6 ee3d 374b 0dbe 9b13 683c 8e62 4dbd
000003d0: 6ce1 54be 223f d13c f16d e2bd a157 2a3e
000003e0: b83f d33c ceb9 0dbe 5eed 4abe 05df 2cbc
000003f0: 3276 ba3d eef4 4f3e daf3 d13d a62c 26be

transformer.blocks.0.mha.qkv_linear.bias f4 [96]
-0.0041649938 -0.04991916 0.039713234 -0.018108804 0.040506136 -0.011695918 -0.0019367293 0.026371436
0.00083568424 -0.082771115 0.029029338 0.028651115 0.07642769 -0.059163257 -0.06380058 -0.017151115
0.037240025 0.011089695 -0.003476764 0.016193237 0.023901528 0.09615348 0.0063158236 -0.029708944
-0.07645707 0.057110533 0.029372104 0.038878374 -0.014839115 0.03361518 0.022384148 0.059538595
-0.0008403106 0.0013635046 -0.0016756698 0.00024656713 -0.00066044845 -0.0006142452 0.0014132642 0.00057478744
-5.882957e-05 0.00071898446 0.0002983022 -0.00052253663 -0.00030459047 -0.00067861646 0.00048121877 -0.0012058055
-0.00033603024 5.0322765e-06 0.00025035936 -8.122547e-05 -0.0003875615 -0.0013799695 -0.0009643794 2.1306412e-05
9.525794e-05 -0.0005663277 3.4319448e-05 -0.0006708288 0.00087148364 -0.0004198056 -0.0005774898 -0.0004554136
-0.019869372 -0.0027351293 0.0029958107 0.0023430102 -0.008948208 -0.005286556 -0.008465045 0.006029228
-0.014341844 -0.014300898 0.026931552 -0.009119955 -0.009407149 -0.00044942152 -0.016734041 0.0027051584
-0.0040126443 0.0069538695 0.014421403 -0.01113157 -0.0005682481 -0.00016106099 -0.0042122984 0.006735205
-0.012309106 -0.0063560028 0.0050231554 0.019200154 -0.0060328343 0.0021771996 -0.015545378 0.0023992464
00000000: 807a 88bb 0878 4cbd 58aa 223d ea58 94bc
00000010: c3e9 253d 3ca0 3fbc dad9 fdba e908 d83c
00000020: d211 5b3a e783 a9bd efce ed3c beb5 ea3c
00000030: 1f86 9c3d 2c55 72bd e1a9 82bd 7f80 8cbc
00000040: ff88 183d 8db1 353c 6cda 63bb aea7 843c
00000050: 23cd c33c 1eec c43d f8f4 ce3b 2c60 f3bc
00000060: 8695 9cbd bcec 693d c49d f03c ee3e 1f3d
00000070: c21f 73bc 12b0 093d f65e b73c bede 733d
00000080: 4a48 5cba 9fb7 b23a 26a2 dbba ae45 8139
00000090: f221 2dba 4c05 21ba 473d b93a 55ad 163a
000000a0: c5bf 76b8 3b7a 3c3a 7265 9c39 d7fa 08ba
000000b0: 71b1 9fb9 2ee5 31ba 174c fc39 1e0c 9eba
000000c0: 372d b0b9 edda a836 aa42 8339 9857 aab8
000000d0: a031 cbb9 18e0 b4ba 68ce 7cba 2cbb b237
000000e0: 38c5 c738 9c75 14ba 3af2 0f38 8fda 2fba
000000f0: 4774 643a 5b19 dcb9 af62 17ba 94c4 eeb9
00000100: 18c5 a2bc db3f 33bb 5d55 443b 308d 193b
00000110: 819b 12bc d93a adbb f9b0 0abc d590 c53b
00000120: 0efa 6abc 504e 6abc 8f9f dc3c dd6b 15bc
00000130: 7120 1abc 56a0 ebb9 d415 89bc 0749 313b
00000140: 807c 83bb 49dd e33b c047 6c3c 3061 36bc
00000150: 7cf6 14ba 7be2 28b9 5207 8abb ffb2 dc3b
00000160: 22ac 49bc 0446 d0bb 4899 a43b a449 9d3c
00000170: 15af c5bb 59af 0e3b 0bb2 7ebc ad3c 1d3b

transformer.blocks.0.mha.out_linear.weight f4 [32, 32]
-0.15263768 -0.10889807 -0.3761291 -0.25657105 -0.1882674 -0.277568 -0.3272132 -0.29885814
-0.091775455 -0.19553873 0.14688644 -0.03676478 -0.029597089 -0.31904584 0.1593248 0.16585705
0.073135756 0.1440344 0.069574304 0.1939934 -0.14404763 -0.28743073 0.28564814 0.12649193
-0.17639175 0.008039074 -0.12916902 0.024074577 0.10151392 -0.24703093 -0.20693389 0.20669909
0.28894013 -0.1556783 0.24796152 0.056948423 -0.36938322 0.21328938 -0.22196002 -0.083884045
-0.037529353 -0.09855602 0.28189963 -0.072067715 0.003323377 0.03762143 -0.058387328 0.2728925
0.28202268 0.17911991 0.20820707 0.16127609 -0.12685633 -0.13898982 0.27650505 0.27502126
-0.18160993 -0.19732572 0.03031428 0.26714742 -0.18106194 -0.21325053 -0.098830804 -0.106074
0.20377432 -0.19748728 0.4723417 -0.1439514 -0.056544308 0.17041038 -0.20858991 0.01148983
-0.20109421 -0.14384292 0.22794087 0.3209072 -0.15092413 -0.2607396 -0.2087411 0.17636473
0.3272781 0.30853248 0.30864802 -0.08054181 0.1507807 0.2637645 0.2422994 -0.080581814
0.3329535 0.09359293 0.3394423 0.39682344 0.083890915 0.10497535 -0.31207427 -0.07952255
0.22485502 0.18863341 -0.36024126 0.05889646 0.42539084 0.028657587 -0.28820646 -0.27347937
0.12227867 0.0366879 0.24437854 -0.013856945 -0.067489505 0.20505941 0.062787615 -0.20451763
-0.15615349 0.19655053 0.21677168 -0.21425465 -0.1070882 0.09022153 -0.04077234 0.25672302
-0.062964045 0.11993735 0.122847065 -0.20392174 0.12554768 -0.12935047 0.09400196 0.1543781
0.2796765 -0.24991076 0.07949251 0.15674786 -0.07481188 -0.0035630504 0.09993488 -0.04203625
0.1290689 -0.23393169 0.24029094 -0.23636408 -0.124896154 0.17312254 0.27493334 -0.3142684
0.058993623 0.2528935 0.42974606 -0.018767718 -0.31600267 -0.117038466 -0.24764067 0.2749173
0.07907296 -0.015804159 -0.24179803 0.04187181 0.06640638 0.08518146 -0.04764484 0.10765727
-0.32053566 0.1325826 -0.31428227 -0.18137981 -0.25043836 -0.11120562 0.13221282 0.27398145
-0.18036658 -0.3086038 0.09638063 0.344486 -0.32744277 0.017959556 -0.20876701 -0.17282036
-0.027608328 0.21829554 -0.04728367 0.021240821 -0.18233825 -0.074059926 0.12187637 0.12760437
0.24280295 -0.16916627 0.07043635 -0.18794513 0.12836833 -0.39694175 0.12459904 0.036180034
-0.28287187 0.10253125 -0.22290367 0.054057054 0.25503615 -0.30087703 0.028259877 0.017364196
0.031479474 -0.28539118 -0.02572028 0.011360552 -0.28071946 -0.08520948 0.071434155 0.009016094
-0.11168681 0.28143752 0.21091445 -0.24121635 -0.30594477 0.27778667 -0.25700903 0.21356826
-0.29963362 -0.19748299 0.38329643 -0.027875697 -0.24831335 -0.101349644 0.050376512 -0.14856544
-0.03451835 -0.054917306 -0.16472338 0.2929633 0.29258195 0.040937208 -0.15848178 -0.2869844
-0.21479242 0.10617827 0.16963597 0.2617577 -0.19682704 -0.14165911 -0.09930213 -0.09342538
0.30165738 0.04151211 -0.09768598 0.08447101 -0.1950635 -0.18326034 -0.009103783 -0.00051446236
0.017150931 -0.015478461 -0.23247524 0.026462173 -0.18276337 -0.105606705 -0.10799418 -0.19293705
00000000: 0d4d 1cbe f405 dfbd fe93 c0be 485d 83be
00000010: 2bc9 40be 651d 8ebe 7d88 a7be ef03 99be
00000020: c5f4 bbbd 4e3b 48be 6669 163e aa96 16bd
00000030: 9875 f2bc fa59 a3be 0a26 233e 6ed6 293e
00000040: 33c8 953d c17d 133e f97c 8e3d 35a6 463e
00000050: 3981 13be 1f2a 93be 7940 923e 1a87 013e
00000060: 0aa0 34be 52b6 033c e244 04be 0c38 c53c
00000070: 88e6 cf3d adf5 7cbe 7ae6 53be eda8 533e
00000080: f6ef 933e 226a 1fbe a0e9 7d3e c042 693d
00000090: cc1f bdbe 8868 5a3e 7d49 63be 66cb abbd
000000a0: 61b8 19bd bdd7 c9bd 2655 903e 3d98 93bd
000000b0: 04cd 593b ee18 1a3d 8d27 6fbd 91b8 8b3e
000000c0: 4765 903e 366b 373e 3c34 553e 8f25 253e
000000d0: a0e6 01be 5953 0ebe 1292 8d3e 96cf 8c3e
000000e0: f4f7 39be c10f 4abe a755 f83c 8cc7 883e
000000f0: 4d68 39be 595e 5abe ce67 cabd 533d d9bd
00000100: 37aa 503e 1b3a 4abe c5d6 f13e ff67 13be
00000110: 019b 67bd 0f80 2e3e 9898 55be d73f 3c3c
00000120: a4eb 4dbe 8f4b 13be 5569 693e f34d a43e
00000130: db8b 1abe a97f 85be 3ac0 55be f598 343e
00000140: ff90 a73e f8f7 9d3e 1d07 9e3e 1bf3 a4bd
00000150: 4166 1a3e 240c 873e 551d 783e 1408 a5bd
00000160: e278 aa3e a6ad bf3d 62cb ad3e 712c cb3e
00000170: 00cf ab3d 51fd d63d 33c8 9fbe b8dc a2bd
00000180: 6540 663e 1e29 413e 8b71 b8be 6a3d 713d
00000190: d4cc d93e 51c3 ea3c cc8f 93be 7d05 8cbe
000001a0: 3d6d fa3d 0d46 163d 5e3e 7a3e 3d08 63bc
000001b0: f037 8abd 18fb 513e cb96 803d 126d 51be
000001c0: b3e6 1fbe 8b44 493e 65f9 5d3e 9265 5bbe
000001d0: 0f51 dbbd 11c6 b83d e600 27bd 3371 833e
000001e0: 4bf3 80bd b7a1 f53d 3e97 fb3d dcd0 50be
000001f0: 928f 003e 7374 04be 1984 c03d 4b15 1e3e
00000200: c231 8f3e 9be8 7fbe f8cc a23d 8382 203e
00000210: f936 99bd 1182 69bb a9aa cc3d 342e 2cbd
00000220: a32a 043e ca8b 6fbe d40e 763e 6d09 72be
00000230: 8ec9 ffbd 0947 313e 10c4 8c3e cae7 a0be
00000240: 4ca3 713d 427b 813e ad07 dc3e c2be 99bc
00000250: 1acb a1be ddb1 efbd 8495 7dbe f6c1 8c3e
00000260: 01f1 a13d b977 81bc e799 77be c681 2b3d
00000270: 1100 883d 9e73 ae3d 3c27 43bd 6a7b dc3d
00000280: 401d a4be bcc3 073e 9be9 a0be a1bb 39be
00000290: 7539 80be c6bf e3bd cc62 073e 4c47 8c3e
000002a0: 04b2 38be 5101 9ebe 3563 c53d 7860 b03e
000002b0: 94a6 a7be eb1f 933c 05c7 55be d2f7 30be
000002c0: dc2a e2bc de88 5f3e 86ac 41bd 3b01 ae3c
000002d0: e1b6 3abe bbac 97bd 519a f93d b8aa 023e
000002e0: 56a1 783e ec39 2dbe ef40 903d b074 40be
000002f0: fd72 033e f33b cbbe c82d ff3d 8431 143d
00000300: 95d4 90be e7fb d13d dc40 64be ee6a 5d3d
00000310: 1994 823e 8e0c 9abe 4281 e73c 5c3f 8e3c
00000320: 9ff0 003d cb1e 92be 56b3 d2bc 9c21 3a3c
00000330: 76ba 8fbe 4f82 aebd 124c 923d 3db8 133c
00000340: 0ebc e4bd 9418 903e f5f9 573e 6b01 77be
00000350: cba4 9cbe 0e3a 8e3e b096 83be a3b1 5a3e
00000360: 9469 99be fb38 4abe 6e3f c43e 935b e4bc
00000370: db45 7ebe 6790 cfbd 9a57 4e3d 8a21 18be
00000380: 1d63 0dbd f8f0 60bd 3fad 28be 49ff 953e
00000390: 4dcd 953e c6ad 273d 0c49 22be 9fef 92be
000003a0: 8bf2 5bbe fe73 d93d 0db5 2d3e 1b05 863e
000003b0: 078d 49be 160f 11be ea5e cbbd ce55 bfbd
000003c0: d672 9a3e 9a08 2a3d 960f c8bd 23ff ac3d
000003d0: babe 47be 99a8 3bbe 0928 15bc fcdc 06ba
000003e0: 1c80 8c3c 5f99 7dbc fd0d 6ebe 33c7 d83c
000003f0: 5226 3bbe 5448 d8bd 0d2c ddbd 4a91 45be

transformer.blocks.0.mha.out_linear.bias f4 [32]
0.011200052 -0.018147413 0.014391493 0.0013424114 -0.0049796747 0.009207039 0.008954302 -0.0010231283
-0.007548187 0.0011707724 -0.008146632 0.016055344 0.0068069613 -0.0011301935 -7.903113e-05 -0.009124465
0.0034671116 -0.021429036 -0.0070690443 -0.0074513736 0.0010877508 -0.00026739555 -0.0029767149 0.020352855
0.020440752 0.003324786 -0.006594437 0.0031726942 -0.005744752 0.0008333916 -0.007683719 -0.014800965
00000000: 6c80 373c e2a9 94bc 4cca 6b3c daf3 af3a
00000010: 8a2c a3bb 1fd9 163c 11b5 123c 7d1a 86ba
00000020: c856 f7bb 9a74 993a 7479 05bc 7f86 833c
00000030: ee0c df3b 0023 94ba 84bd a5b8 c87e 15bc
00000040: 7b38 633b f28b afbc 71a3 e7bb a72a f4bb
00000050: dc92 8e3a 3931 8cb9 fd14 43bb 08bb a63c
00000060: 5d73 a73c a7e4 593b 2616 d8bb faec 4f3b
00000070: 793e bcbb f777 5a3a b5c7 fbbb bf7f 72bc

transformer.blocks.0.fw.0.weight f4 [64, 32]
0.22227632 -0.14641543 -0.0970907 0.11476531 -0.07196282 0.0764408 -0.06198839 0.06110246
0.07088752 -0.11884142 -0.109198846 -0.116134755 0.008903885 -0.15812747 -0.07020757 0.120683104
-0.1290245 0.14831844 0.10820285 -0.068678655 0.054690074 -0.18139467 -0.15392165 -0.0447745
0.1162897 -0.16415386 0.08898711 0.026425447 -0.0999241 0.16512127 0.07846786 -0.113443494
0.23184535 -0.22910368 -0.19799073 0.014882762 -0.13056956 -0.16026413 0.20114352 -0.12022129
0.11362765 0.12751852 -0.056753978 -0.14035693 -0.095025115 0.06293864 0.11300062 0.11285993
-0.031017026 -0.034627084 -0.0048935544 -0.106222525 0.028857527 -0.05980425 0.1954023 0.10088876
-0.1468398 -0.07960175 0.19232085 -0.032876562 0.05893012 0.08291475 -0.10637443 0.0359239
-0.13558328 0.038995817 0.09714502 0.100351036 0.222675 -0.09635645 0.24066263 0.09999643
0.027851343 -0.039746955 0.065242335 0.16828427 0.045542415 0.018767644 0.039551675 -0.09629904
-0.11948633 -0.1425399 -0.16381982 0.057919446 0.035066154 -0.13020134 -0.08196325 -0.12518664
-0.07509415 0.0640526 -0.013745499 -0.055390347 0.1587982 0.15938935 -0.16645287 -0.19765764
-0.17966773 -0.008065592 -0.09117018 0.14694305 0.0026180514 0.116751 -0.055748485 0.059369545
-0.097061254 -0.16855532 -0.07360156 -0.03200231 0.11090741 0.14365035 0.003687635 0.021934012
-0.12697163 0.05027524 -0.14255254 0.078489006 0.03737675 0.07542563 -0.005781135 -0.13543263
-0.020213801 -0.14037928 0.09200259 -0.0002903346 0.22433224 0.05384987 0.12747428 0.18464614
0.18232165 -0.06820107 -0.032777946 0.068535805 0.059557747 0.2704618 -0.12651442 -0.19315489
-0.0002681715 -0.105386704 0.011947584 -0.10305301 0.103434905 0.096041374 -0.06769286 0.052086763
-0.14033449 0.11763232 -0.051374804 -0.107177354 0.11034474 -0.1102458 0.1506293 0.16196488
0.03439264 0.1442103 0.10519554 -0.1944579 -0.010322366 0.041721206 -0.22992022 0.08506973
0.18907957 -0.14164782 -0.14523703 0.02659794 0.091348454 -0.03055489 0.08992024 -0.020632211
-0.121578254 -0.13002488 0.16355714 -0.17182991 -0.08400293 0.11810626 -0.115815796 0.06090332
0.09949237 0.05217322 -0.08909084 0.060174588 0.031572614 0.15780419 0.025118671 0.007593495
-0.0034118167 0.0014791506 -0.053224925 -0.2898498 -0.026557775 0.21513726 0.028731536 0.13173889
-0.18119147 -0.10390515 -0.012176198 -0.16825351 -0.05886656 -0.032384846 0.051181927 0.04708157
0.023100179 0.18376166 0.101278335 0.04802962 0.06571361 0.15714367 -0.2901931 0.19294153
-0.26052025 0.08468416 -0.032557912 -0.08913335 -0.16930464 0.21353601 -0.23620087 0.008195931
0.14803225 -0.07899024 0.03761275 -0.12529255 -0.09939524 -0.11026154 -0.027274484 0.025163678
-0.0737653 0.10493072 0.14441712 0.16602187 -0.048469916 -0.050537232 -0.13874547 0.011761683
-0.12000779 0.15903707 -0.10490535 0.00025015892 -0.009966656 0.037120763 -0.0882129 0.09155518
0.020088743 -0.004392581 0.07408908 -0.09124999 0.030793313 -0.20650944 0.10399503 0.041602302
-0.06666279 0.030583654 -0.05412215 -0.0757862 -0.034382652 0.099461176 0.12945816 0.087067485
00000000: 679c 633e eded 15be 7dd7 c6bd 130a eb3d
00000010: 3e61 93bd ff8c 9c3d 8ae7 7dbd 9346 7a3d
00000020: 7a2d 913d 2163 f3bd a5a3 dfbd 0fd8 edbd
00000030: 9ae1 113c 2bec 21be fdc8 8fbd b428 f73d
00000040: 001f 04be cae0 173e 7599 dd3d 65a7 8cbd
00000050: b302 603d 86bf 39be a39d 1dbe 7765 37bd
00000060: 4b29 ee3d f317 28be e03e b63d 2e7a d83c
00000070: 02a5 ccbd 8d15 293e c2b3 a03d 1055 e8bd
00000080: de68 6d3e 289a 6abe 15be 4abe d4d6 733c
00000090: 07b4 05be 481c 24be 91f8 4d3e 9436 f6bd
000000a0: 9db5 e83d 3794 023e dc76 68bd bab9 0fbe
000000b0: 879c c2bd f9e5 803d de6c e73d 1b23 e73d
000000c0: 6b17 febc 21d5 0dbd 1c5a a0bb 328b d9bd
000000d0: 9f66 ec3c 4df5 74bd 8a17 483e c49e ce3d
000000e0: 2c5d 16be 3e06 a3bd c2ef 443e 93a9 06bd
000000f0: b660 713d 35cf a93d d6da d9bd f024 133d
00000100: 58d6 0abe 14ba 1f3d f8f3 c63d d884 cd3d
00000110: ea04 643e 8856 c5bd 4470 763e eeca cc3d
00000120: 8028 e43c b4cd 22bd c69d 853d b652 2c3e
00000130: af8a 3a3d 9abe 993c f000 223d 6e38 c5bd
00000140: 40b5 f4bd fbf5 11be 62c0 27be f13c 6d3d
00000150: 87a1 0f3d 8053 05be 59dc a7bd ed30 00be
00000160: f6ca 99bd 022e 833d cd34 61bc fde0 62bd
00000170: ff9b 223e f636 233e 9f72 2abe c466 4abe
00000180: d1fa 37be 8b25 04bc 6eb7 babd 3d78 163e
00000190: 9d93 2b3b 261b ef3d 8658 64bd 7b2d 733d
000001a0: 0dc8 c6bd c499 2cbe 6abc 96bd db14 03bd
000001b0: 6d23 e33d 1419 133e 40ac 713b f5ae b33c
000001c0: da04 02be 69ed 4d3d 4bf9 11be d8be a03d
000001d0: 5d18 193d c178 9a3d ad6f bdbb daae 0abe
000001e0: 6a97 a5bc 96bf 0fbe db6b bc3d 0d38 98b9
000001f0: 5ab7 653e ae91 5c3d 9e88 023e e113 3d3e
00000200: 87b2 3a3e 01ad 8bbd 2b42 06bd 805c 8c3d
00000210: d3f2 733d f879 8a3e ff8c 01be 65ca 45be
00000220: 5f99 8cb9 fcd4 d7bd cdbf 433c 750d d3bd
00000230: aed5 d33d 57b1 c43d 8ea2 8abd ee58 553d
00000240: d8b3 0fbe 37e9 f03d 636e 52bd cd7f dbbd
00000250: 6cfc e13d 8dc8 e1bd 913e 1a3e 1fda 253e
00000260: 4cdf 0c3d ddab 133e c270 d73d f91f 47be
00000270: 241f 29bc dbe3 2a3d 3570 6bbe 0a39 ae3d
00000280: 139e 413e 200c 11be 04b9 14be ece3 d93c
00000290: e614 bb3d 404e fabc 1a28 b83d e204 a9bc
000002a0: 05fe f8bd 3e25 05be 867b 273e 2ef4 2fbe
000002b0: ba09 acbd b2e1 f13d d530 edbd c275 793d
000002c0: a8c2 cb3d 96b3 553d 4275 b6bd a179 763d
000002d0: 4952 013d 6c97 213e acc5 cd3c dad2 f83b
000002e0: c998 5fbb 0fe0 c13a 6102 5abd 3167 94be
000002f0: b18f d9bc f14c 5c3e 665e eb3c 8fe6 063e
00000300: 428a 39be 39cc d4bd ad7e 47bc a64a 2cbe
00000310: 101e 71bd f9a5 04bd 24a4 513d 9bd8 403d
00000320: 963c bd3c 042c 3c3e 046b cf3d b5ba 443d
00000330: db94 863d 45ea 203e 3194 94be 7792 453e
00000340: e962 85be e46e ad3d 725b 05bd 8c8b b6bd
00000350: 325e 2dbe 2fa9 5a3e a4de 71be 3a48 063c
00000360: c495 173e a3c5 a1bd d40f 1a3d b14c 00be
00000370: bb8f cbbd cdd0 e1bd bd6e dfbc 0f24 ce3c
00000380: 4312 97bd ebe5 d63d 15e2 133e a301 2a3e
00000390: 6488 46bd 2100 4fbd 4b13 0ebe 13b4 403c
000003a0: a5c6 f5bd 9dda 223e 9ed8 d6bd c327 8339
000003b0: 2f4b 23bc f10b 183d f7a8 b4bd 4881 bb3d
000003c0: 2691 a43c a4ef 8fbb 04bc 973d 46e1 babd
000003d0: 4242 fc3c 3677 53be 59fb d43d 2d67 2a3d
000003e0: 8086 88bd 928a fa3c 30af 5dbd cc35 9bbd
000003f0: d3d4 0cbd 4db2 cb3d ae90 043e 7050 b23d

transformer.blocks.0.fw.0.bias f4 [64]
0.1171962 -0.13887529 0.038248125 0.10823594 0.15364611 -0.13483143 -0.03127343 0.019080667
-0.06876765 0.077455595 -0.10645802 -0.028035825 -0.15025696 -0.12229178 0.10148958 0.016195685
-0.06647236 0.029919649 0.018839736 0.14059886 -0.044341255 -0.16003324 0.14170498 0.13838525
0.11087082 -0.015362581 -0.13340937 -0.046778902 -0.12798247 0.03437615 -0.0464396 -0.1211904
0.13780098 0.1386168 0.05338307 0.18849999 0.0952845 0.12902044 0.12273482 0.17117831
-0.10663169 -0.098106205 -0.071961425 -0.0152135715 -0.0848973 0.04802042 -0.043489564 -0.09778609
0.013390754 -0.08412862 0.04817989 0.12079448 0.027592545 0.08689494 -0.09662722 0.03829717
-0.048680715 -0.13183874 0.046763316 -0.11152376 0.16879515 -0.0058576586 0.04588335 -0.06060851
00000000: 9004 f03d 5335 0ebe 11aa 1c3d ceaa dd3d
00000010: 6855 1d3e 4011 0abe 9118 00bd 0f4f 9c3c
00000020: 0ed6 8cbd 0aa1 9e3d aa06 dabd 63ab e5bc
00000030: f6dc 19be 1d74 fabd c5d9 cf3d d0ac 843c
00000040: a922 88bd 0d1a f53c ca55 9a3c 26f9 0f3e
00000050: 2d9f 35bd c1df 23be 1c1b 113e ddb4 0d3e
00000060: 3e10 e33d 56b3 7bbc 779c 08be 3c9b 3fbd
00000070: d60d 03be 02ce 0c3d 7337 3ebd ac32 f8bd
00000080: b31b 0d3e 90f1 0d3e 35a8 5a3d 2406 413e
00000090: 8524 c33d ef1d 043e 655c fb3d 5e49 2f3e
000000a0: b761 dabd e8eb c8bd 8360 93bd 5842 79bc
000000b0: a3de adbd 0fb1 443d 1d22 32bd 1344 c8bd
000000c0: e564 5b3c a04b acbd 4758 453d 1963 f73d
000000d0: c309 e23c f9f5 b13d 7ee4 c5bd 7edd 1c3d
000000e0: 6e65 47bd bc00 07be e48a 3f3d 9266 e4bd
000000f0: a3d8 2c3e 9af1 bfbb 2ef0 3b3d a140 78bd

transformer.blocks.0.fw.2.weight f4 [32, 64]
-0.06456183 -0.20546071 0.048901137 0.15144464 -0.024600547 0.08337204 0.14008994 -0.17601904
0.020134738 0.090657935 -0.014881655 0.1631161 -0.14903401 0.12588063 -0.07420723 0.06795993
-0.09423138 0.051038 -0.12506326 -0.12985797 -0.018306635 -0.20980896 0.07982524 0.16280887
-0.031885836 -0.11981427 0.09427627 0.09343984 -0.10130086 -0.059480026 0.11955452 -0.2280588
0.13512577 0.0010870062 -0.0019112012 0.12547751 -0.08519297 -0.058461998 0.018979486 0.06736786
0.029909886 -0.09627947 -0.052878402 -0.03806029 0.07391784 0.07189043 0.15800743 0.08719698
0.02009224 -0.044194132 0.014848397 0.1196917 0.042796224 -0.021859827 -0.19983876 -0.17855163
0.021994555 -0.2120849 -0.16274601 0.004269761 0.17498268 0.036501072 0.14366266 0.1991405
-0.18464313 -0.2424684 -0.03222976 0.08857349 -0.19005994 0.05889326 0.042675324 -0.026148617
0.060868412 -0.0079836035 -0.03504568 0.14437638 0.033298675 -0.07595063 -0.008771798 -0.009579205
-0.08413508 -0.12688501 -0.11586 0.0801199 -0.021933056 0.08253433 -0.08567874 -0.06070985
-0.03570004 0.034047663 0.041332066 -0.020999238 -0.029834408 0.08711328 0.106103264 -0.024911355
0.07974454 0.057925448 -0.046628155 -0.038051352 -0.17529243 0.0037809138 0.034653667 -0.010075868
0.07168935 -0.06981857 -0.18806523 -0.08029537 0.07001941 0.020085325 -0.07508568 0.11726656
0.14739156 -0.08842606 -0.018188933 0.16832528 -0.1536329 0.052465227 -0.0805603 -0.14536016
0.08970016 -0.12899712 0.04577956 -0.103349015 0.14860328 0.08368172 0.044683848 0.11724519
0.16795494 0.08607903 -0.044314727 -0.13705073 -0.0062484187 0.076299906 0.07535707 0.07639224
-0.11629332 0.09326944 -0.16672316 0.12319329 -0.0932591 -0.05987836 -0.26258153 -0.036719486
0.18291916 0.019259535 -0.008040172 0.18698904 -0.07833678 0.031346254 0.039402243 -0.120599136
-0.060582414 -0.15202194 -0.1518055 -0.11251155 -0.097472146 0.09373851 0.09370166 0.12235164
-0.048485566 0.050284073 0.26037344 0.00584196 0.13144222 -0.022531383 -0.037544843 -0.0005065975
-0.1259163 -0.09397767 0.068400346 0.061422594 0.047791664 -0.14508107 -0.17529622 0.03474675
-0.20948589 -0.024311338 -0.105497226 -0.020427467 0.028043881 -0.080476835 0.079989985 0.042167775
0.048027437 0.20024769 -0.03627285 0.080288574 -0.009981536 -0.13360858 -0.14184788 -0.13406992
-0.02700033 -0.10923609 0.044064205 -0.14167242 -0.03047025 -0.052089464 0.018464936 0.07586761
-0.08221088 -0.055145424 -0.06298937 -0.14627852 0.07391296 0.13604872 -0.07737024 -0.1003704
-0.019502884 -0.1282458 -0.021409307 0.1282226 -0.08097083 -0.05501177 -0.08527464 0.08330993
-0.14293583 -0.029285673 0.10807486 -0.10511666 0.0049794978 -0.013609892 0.07764079 0.00023529482
-0.03636326 0.04863165 0.047591753 0.08674387 -0.038505256 -0.016073218 0.13346165 -0.004869879
-0.088392556 0.07058764 0.029641042 -0.049597 0.054587103 -0.03582604 0.053730708 -0.13435088
-0.041424826 0.099793695 0.010222723 -0.11294386 -0.0065783495 0.024611678 -0.0042690593 -0.07577524
-0.04720766 -0.09139841 0.06805549 0.0935038 0.026921382 0.09071068 0.002620886 0.0113833165
00000000: fe38 84bd 4b64 52be 8f4c 483d 4e14 1b3e
00000010: 1687 c9bc f6be aa3d bd73 0f3e 563e 34be
00000020: 9bf1 a43c deaa b93d 2fd2 73bc e807 273e
00000030: 5f9c 18be dae6 003e f6f9 97bd 932e 8b3d
00000040: 62fc c0bd 390d 513d 9510 00be 7df9 04be
00000050: ccf7 95bc 29d8 56be 6a7b a33d 5eb7 263e
00000060: b99a 02bd 2f61 f5bd eb13 c13d 635d bf3d
00000070: d376 cfbd 54a1 73bd 00d9 f43d 3f88 69be
00000080: 695e 0a3e e079 8e3a 4581 faba 2d7d 003e
00000090: a779 aebd d975 6fbd de7a 9b3c 29f8 893d
000000a0: 9405 f53c 2c2e c5bd 0697 58bd 1be5 1bbd
000000b0: 3d62 973d 4a3b 933d b3cc 213e 5594 b23d
000000c0: 7b98 a43c e804 35bd b146 733c ec20 f53d
000000d0: 184b 2f3d 6113 b3bc 88a2 4cbe 3dd6 36be
000000e0: ed2d b43c c92c 59be e4a6 26be 5ae9 8b3b
000000f0: a92e 333e 2682 153d 4e1c 133e 7deb 4b3e
00000100: 1713 3dbe a349 78be 5a03 04bd 0566 b53d
00000110: 139f 42be 0f3a 713d 52cc 2e3d a035 d6bc
00000120: 2851 793d a9cd 02bc 0f8c 0fbd 67d7 133e
00000130: 3164 083d 018c 9bbd 96b7 0fbc 19f2 1cbc
00000140: 034f acbd 25ee 01be 0248 edbd e715 a43d
00000150: f4ac b3bc c207 a93d 5678 afbd e4aa 78bd
00000160: 353a 12bd 9075 0b3d d04b 293d 9806 acbc
00000170: 4a67 f4bc 7368 b23d ab4c d93d e612 ccbc
00000180: 1b51 a33d 3c43 6d3d 2afd 3ebd bcdb 1bbd
00000190: dc7f 33be 35c9 773b 01f1 0d3d 4115 25bc
000001a0: ded1 923d 0afd 8ebd 2c94 40be e671 a4bd
000001b0: 5666 8f3d fb89 a43c 85c6 99bd 7329 f03d
000001c0: d0ed 163e b918 b5bd f500 95bc 765d 2c3e
000001d0: f151 1dbe c7e5 563d ccfc a4bd 4bd9 14be
000001e0: b8b4 b73d d217 04be 5983 3b3d a6a8 d3bd
000001f0: 752b 183e 5261 ab3d 6906 373d 3f1e f03d
00000200: 61fc 2b3e 344a b03d 5c83 35bd 0757 0cbe
00000210: 89bf ccbb 2043 9c3d cf54 9a3d 8973 9c3d
00000220: 312b eebd 0c04 bf3d 7ab9 2abe c34c fc3d
00000230: a1fe bebd 0343 75bd 1671 86be 2c67 16bd
00000240: 294f 3b3e 2cc6 9d3c edba 03bc 0e7a 3f3e
00000250: 096f a0bd ee64 003d 3f64 213d aefc f6bd
00000260: 4425 78bd a4ab 1bbe e772 1bbe 756c e6bd
00000270: 7a9f c7bd faf9 bf3d a8e6 bf3d 7f93 fa3d
00000280: cd98 46bd acf6 4d3d ab4f 853e ea6d bf3b
00000290: ca98 063e bc93 b8bc 9fc8 19bd 2fcd 04ba
000002a0: 34f0 00be 5d77 c0bd 7b15 8c3d 4296 7b3d
000002b0: 31c1 433d 2290 14be da80 33be 9c52 0e3d
000002c0: 7883 56be 9228 c7bc ee0e d8bd 8157 a7bc
000002d0: 48bc e53c 0ad1 a4bd cad1 a33d 1eb8 2c3d
000002e0: 6bb8 443d bb0d 4d3e d792 14bd 566e a43d
000002f0: 9989 23bc b0d0 08be 9240 11be a049 09be
00000300: cc2f ddbc 2cb7 dfbd ab7c 343d 9312 11be
00000310: bf9c f9bc c35b 55bd c743 973c 7a60 9b3d
00000320: 2e5e a8bd 2be0 61bd 9200 81bd 09ca 15be
00000330: ae5f 973d 5b50 0b3e 4a74 9ebd ff8e cdbd
00000340: 83c4 9fbc de52 03be 9262 afbc c94c 033e
00000350: 09d4 a5bd 0654 61bd 78a4 aebd 669e aa3d
00000360: c55d 12be 82e8 efbc 5a56 dd3d 6747 d7bd
00000370: 0e2b a33b 06fc 5ebc 2202 9f3d 79b9 7639
00000380: a4f1 14bd fb31 473d 92ef 423d c5a6 b13d
00000390: b0b7 1dbd fbab 83bc 2caa 083e 8293 9fbb
000003a0: 2807 b5bd 4190 903d c5d1 f23c 3926 4bbd
000003b0: ba96 5f3d 53be 12bd bb14 5c3d 4793 09be
000003c0: 14ad 29bd a360 cc3d 357d 273c 1c4f e7bd
000003d0: 328f d7bb 6e9e c93c 77e3 8bbb 0d30 9bbd
000003e0: d25c 41bd 172f bbbd ad60 8b3d ec7e bf3d
000003f0: 3b8a dc3c 85c6 b93d 2cc3 2b3b 1781 3a3c

transformer.blocks.0.fw.2.bias f4 [32]
-0.05118091 -0.06708861 0.094182365 -0.066421576 -0.020468751 0.087438546 -0.073077954 0.034433864
-0.065998666 0.046948403 0.12991679 0.030055322 -0.053749695 -0.13451652 -0.12236101 -0.07378884
0.09904865 -0.022832798 -0.044281837 -0.039154727 -0.080789395 -0.016458753 -0.015890552 -0.062558375
0.025509581 0.0998133 -0.031031163 0.00057713577 0.12725616 0.037193447 -0.06649192 0.14582145
00000000: 13a3 51bd c165 89bd afe2 c03d 0908 88bd
00000010: 15ae a7bc fb12 b33d e5a9 95bd 860a 0d3d
00000020: 4f2a 87bd f84c 403d e808 053e 9436 f63c
00000030: a428 5cbd b3be 09be 6998 fabd 9a1e 97bd
00000040: 05da ca3d d90b bbbc df60 35bd b560 20bd
00000050: e974 a5bd 82d4 86bc e72c 82bc 9b1e 80bd
00000060: 78f9 d03c ea6a cc3d 1135 febc ed4a 173a
00000070: 704f 023e 2858 183d ea2c 88bd 3852 153e

transformer.blocks.0.norm1.weight f4 [32]
0.9029931 0.94011927 1.0062741 0.9576644 0.932353 0.99213535 1.0248324 0.9952516
0.99164706 1.0283297 0.97984576 0.99455583 1.0119048 0.9387731 1.1155998 1.0189811
1.0537797 0.95248115 1.0070534 1.0302485 0.97947025 1.0204574 1.0031006 1.0112848
1.0180404 1.1049362 1.0337163 1.0469685 1.026286 1.0283165 1.0452901 1.0899129
00000000: 8e2a 673f a8ab 703f 97cd 803f 7e29 753f
00000010: b0ae 6e3f 95fc 7d3f b52d 833f cfc8 7e3f
00000020: 95dc 7d3f 4fa0 833f 2cd7 7a3f 369b 7e3f
00000030: 1986 813f 6f53 703f f9cb 8e3f f96d 823f
00000040: 41e2 863f ced5 733f 20e7 803f 2fdf 833f
00000050: 90be 7a3f 599e 823f 9a65 803f c871 813f
00000060: 264f 823f 8d6e 8d3f d150 843f 1003 863f
00000070: 575d 833f e09f 833f 11cc 853f 4482 8b3f

transformer.blocks.0.norm1.bias f4 [32]
0.009170595 -0.011440867 0.01100882 -0.005122773 0.00014523511 0.0063843005 0.009907746 -0.0058113756
-0.016134271 0.0012068737 -0.018143352 0.01371395 -0.0043667625 0.011651054 -0.0015288244 -0.0051679313
0.002530898 -0.013215217 -0.00829994 -6.775789e-05 0.0033144653 0.0023949684 -0.0041118786 0.023021007
0.015073634 0.002047783 0.002947946 -0.0029809002 0.0025558972 -0.0055867992 -0.015379666 -0.021667618
00000000: 4340 163c 7972 3bbc 565e 343c efdc a7bb
00000010: 414a 1839 6533 d13b 1954 223c 5a6d bebb
00000020: 052c 84bc f62f 9e3a 5ea1 94bc 7ab0 603c
00000030: 0f17 8fbb 10e4 3e3c d662 c8ba c057 a9bb
00000040: 6cdd 253b a384 58bc 79fc 07bc 3d19 8eb8
00000050: 8037 593b e7f4 1c3b f0bc 86bb 8d96 bc3c
00000060: 67f7 763c 1934 063b 5432 413b 355b 43bb
00000070: d780 273b 7811 b7bb fffa 7bbc 4a80 b1bc

transformer.blocks.0.norm2.weight f4 [32]
0.8393134 0.8452616 1.0562869 0.89842325 0.8763857 0.9661131 1.0463519 0.9924262
1.0131781 1.0482126 1.0273848 0.9678467 0.9685699 0.89828396 1.0410074 1.045901
1.083549 1.007786 0.99802446 1.0695586 0.9791498 0.9993644 0.9673314 0.9410913
1.0983359 1.1037596 1.1042937 1.0358064 1.0672617 1.0243505 1.0048176 1.0981188
00000000: 3edd 563f 1063 583f 6934 873f 11ff 653f
00000010: d05a 603f 3053 773f dcee 853f a50f 7e3f
00000020: d2af 813f d52b 863f 5881 833f cdc4 773f
00000030: 32f4 773f f0f5 653f bb3f 853f 15e0 853f
00000040: bcb1 8a3f 22ff 803f 887e 7f3f 4ce7 883f
00000050: 90a9 7a3f 58d6 7f3f 08a3 773f 5ceb 703f
00000060: 4596 8c3f ff47 8d3f 7f59 8d3f 4e95 843f
00000070: 089c 883f eb1d 833f dd9d 803f 288f 8c3f

transformer.blocks.0.norm2.bias f4 [32]
0.00569472 -0.014299928 0.019706294 0.013435459 -0.010464176 0.007909973 0.00809997 -0.0053921803
-0.013495369 0.015543126 -0.01456746 0.021592153 0.021047255 0.00026846802 0.0029803803 -0.0131112
0.008734413 -0.014653669 -0.0005960721 -0.007376472 0.003480511 -0.007208858 0.007404868 0.017030736
0.017963903 -0.0032209826 -0.0046973876 0.0028067236 -9.200094e-05 -0.0057637943 -0.0028528266 -0.024829963
00000000: c69a ba3b 3f4a 6abc 186f a13c 6620 5c3c
00000010: ef71 2bbc d598 013c bdb5 043c e3b0 b0bb
00000020: ae1b 5dbc 98a8 7e3c 5bac 6ebc 07e2 b03c
00000030: 4b6b ac3c 2bc1 8c39 7c52 433b 5cd0 56bc
00000040: c91a 0f3c f115 70bc b941 1cba 55b6 f1bb
00000050: 4919 643b 4938 ecbb 89a4 f23b 0b84 8b3c
00000060: 0929 933c 1f17 53bb 8bec 99bb 02f1 373b
00000070: a1f0 c0b8 36de bcbb 7df6 3abb 3568 cbbc
